{"format": "graph-model", "generatedBy": "2.12.0", "convertedBy": "TensorFlow.js Converter v4.11.0", "signature": {"inputs": {"args_0": {"name": "args_0:0", "dtype": "DT_FLOAT", "tensorShape": {"dim": [{"size": "-1"}, {"size": "128"}, {"size": "256"}]}}}, "outputs": {"dense": {"name": "Identity:0", "dtype": "DT_FLOAT", "tensorShape": {"dim": [{"size": "-1"}, {"size": "28"}]}}}}, "modelTopology": {"node": [{"name": "StatefulPartitionedCall/model_1/bidirectional_1/forward_lstm_1/PartitionedCall/TensorArrayV2_1/element_shape", "op": "Const", "attr": {"value": {"tensor": {"dtype": "DT_INT32", "tensorShape": {"dim": [{"size": "2"}]}}}, "dtype": {"type": "DT_INT32"}}}, {"name": "StatefulPartitionedCall/model_1/bidirectional_1/forward_lstm_1/PartitionedCall/TensorArrayV2_1/num_elements", "op": "Const", "attr": {"dtype": {"type": "DT_INT32"}, "value": {"tensor": {"dtype": "DT_INT32", "tensorShape": {}}}}}, {"name": "StatefulPartitionedCall/model_1/bidirectional_1/forward_lstm_1/zeros_1/packed/1", "op": "Const", "attr": {"value": {"tensor": {"dtype": "DT_INT32", "tensorShape": {}}}, "dtype": {"type": "DT_INT32"}}}, {"name": "StatefulPartitionedCall/model_1/bidirectional_1/forward_lstm_1/zeros_1/Const", "op": "Const", "attr": {"value": {"tensor": {"dtype": "DT_FLOAT", "tensorShape": {}}}, "dtype": {"type": "DT_FLOAT"}}}, {"name": "StatefulPartitionedCall/model_1/bidirectional_1/forward_lstm_1/PartitionedCall/TensorArrayUnstack/TensorListFromTensor/element_shape", "op": "Const", "attr": {"value": {"tensor": {"dtype": "DT_INT32", "tensorShape": {"dim": [{"size": "2"}]}}}, "dtype": {"type": "DT_INT32"}}}, {"name": "StatefulPartitionedCall/model_1/bidirectional_1/forward_lstm_1/Read/ReadVariableOp", "op": "Const", "attr": {"dtype": {"type": "DT_FLOAT"}, "value": {"tensor": {"dtype": "DT_FLOAT", "tensorShape": {"dim": [{"size": "128"}, {"size": "256"}]}}}}}, {"name": "StatefulPartitionedCall/model_1/bidirectional_1/forward_lstm_1/strided_slice/stack", "op": "Const", "attr": {"value": {"tensor": {"dtype": "DT_INT32", "tensorShape": {"dim": [{"size": "1"}]}}}, "dtype": {"type": "DT_INT32"}}}, {"name": "StatefulPartitionedCall/model_1/bidirectional_1/forward_lstm_1/strided_slice/stack_1", "op": "Const", "attr": {"dtype": {"type": "DT_INT32"}, "value": {"tensor": {"dtype": "DT_INT32", "tensorShape": {"dim": [{"size": "1"}]}}}}}, {"name": "StatefulPartitionedCall/model_1/bidirectional_1/forward_lstm_1/strided_slice/stack_2", "op": "Const", "attr": {"value": {"tensor": {"dtype": "DT_INT32", "tensorShape": {"dim": [{"size": "1"}]}}}, "dtype": {"type": "DT_INT32"}}}, {"name": "StatefulPartitionedCall/model_1/bidirectional_1/forward_lstm_1/zeros/packed/1", "op": "Const", "attr": {"dtype": {"type": "DT_INT32"}, "value": {"tensor": {"dtype": "DT_INT32", "tensorShape": {}}}}}, {"name": "StatefulPartitionedCall/model_1/bidirectional_1/forward_lstm_1/zeros/Const", "op": "Const", "attr": {"dtype": {"type": "DT_FLOAT"}, "value": {"tensor": {"dtype": "DT_FLOAT", "tensorShape": {}}}}}, {"name": "StatefulPartitionedCall/model_1/bidirectional_1/forward_lstm_1/Read_1/ReadVariableOp", "op": "Const", "attr": {"dtype": {"type": "DT_FLOAT"}, "value": {"tensor": {"dtype": "DT_FLOAT", "tensorShape": {"dim": [{"size": "64"}, {"size": "256"}]}}}}}, {"name": "StatefulPartitionedCall/model_1/bidirectional_1/forward_lstm_1/Read_2/ReadVariableOp", "op": "Const", "attr": {"dtype": {"type": "DT_FLOAT"}, "value": {"tensor": {"dtype": "DT_FLOAT", "tensorShape": {"dim": [{"size": "256"}]}}}}}, {"name": "StatefulPartitionedCall/model_1/bidirectional_1/forward_lstm_1/PartitionedCall/time", "op": "Const", "attr": {"value": {"tensor": {"dtype": "DT_INT32", "tensorShape": {}}}, "dtype": {"type": "DT_INT32"}}}, {"name": "StatefulPartitionedCall/model_1/bidirectional_1/forward_lstm_1/PartitionedCall/transpose/perm", "op": "Const", "attr": {"value": {"tensor": {"dtype": "DT_INT32", "tensorShape": {"dim": [{"size": "3"}]}}}, "dtype": {"type": "DT_INT32"}}}, {"name": "StatefulPartitionedCall/model_1/bidirectional_1/forward_lstm_1/PartitionedCall/strided_slice/stack", "op": "Const", "attr": {"value": {"tensor": {"dtype": "DT_INT32", "tensorShape": {"dim": [{"size": "1"}]}}}, "dtype": {"type": "DT_INT32"}}}, {"name": "StatefulPartitionedCall/model_1/bidirectional_1/forward_lstm_1/PartitionedCall/strided_slice/stack_1", "op": "Const", "attr": {"value": {"tensor": {"dtype": "DT_INT32", "tensorShape": {"dim": [{"size": "1"}]}}}, "dtype": {"type": "DT_INT32"}}}, {"name": "StatefulPartitionedCall/model_1/bidirectional_1/forward_lstm_1/PartitionedCall/strided_slice/stack_2", "op": "Const", "attr": {"dtype": {"type": "DT_INT32"}, "value": {"tensor": {"dtype": "DT_INT32", "tensorShape": {"dim": [{"size": "1"}]}}}}}, {"name": "StatefulPartitionedCall/model_1/bidirectional_1/forward_lstm_1/PartitionedCall/while/loop_counter", "op": "Const", "attr": {"dtype": {"type": "DT_INT32"}, "value": {"tensor": {"dtype": "DT_INT32", "tensorShape": {}}}}}, {"name": "StatefulPartitionedCall/model_1/bidirectional_1/forward_lstm_1/PartitionedCall/TensorArrayV2Stack/TensorListStack/element_shape", "op": "Const", "attr": {"value": {"tensor": {"dtype": "DT_INT32", "tensorShape": {"dim": [{"size": "2"}]}}}, "dtype": {"type": "DT_INT32"}}}, {"name": "StatefulPartitionedCall/model_1/bidirectional_1/forward_lstm_1/PartitionedCall/strided_slice_2/stack", "op": "Const", "attr": {"value": {"tensor": {"dtype": "DT_INT32", "tensorShape": {"dim": [{"size": "1"}]}}}, "dtype": {"type": "DT_INT32"}}}, {"name": "StatefulPartitionedCall/model_1/bidirectional_1/forward_lstm_1/PartitionedCall/strided_slice_2/stack_1", "op": "Const", "attr": {"dtype": {"type": "DT_INT32"}, "value": {"tensor": {"dtype": "DT_INT32", "tensorShape": {"dim": [{"size": "1"}]}}}}}, {"name": "StatefulPartitionedCall/model_1/bidirectional_1/forward_lstm_1/PartitionedCall/strided_slice_2/stack_2", "op": "Const", "attr": {"value": {"tensor": {"dtype": "DT_INT32", "tensorShape": {"dim": [{"size": "1"}]}}}, "dtype": {"type": "DT_INT32"}}}, {"name": "StatefulPartitionedCall/model_1/bidirectional_1/backward_lstm_1/PartitionedCall/TensorArrayV2_1/element_shape", "op": "Const", "attr": {"value": {"tensor": {"dtype": "DT_INT32", "tensorShape": {"dim": [{"size": "2"}]}}}, "dtype": {"type": "DT_INT32"}}}, {"name": "StatefulPartitionedCall/model_1/bidirectional_1/backward_lstm_1/PartitionedCall/TensorArrayV2_1/num_elements", "op": "Const", "attr": {"value": {"tensor": {"dtype": "DT_INT32", "tensorShape": {}}}, "dtype": {"type": "DT_INT32"}}}, {"name": "StatefulPartitionedCall/model_1/bidirectional_1/backward_lstm_1/zeros_1/packed/1", "op": "Const", "attr": {"dtype": {"type": "DT_INT32"}, "value": {"tensor": {"dtype": "DT_INT32", "tensorShape": {}}}}}, {"name": "StatefulPartitionedCall/model_1/bidirectional_1/backward_lstm_1/zeros_1/Const", "op": "Const", "attr": {"value": {"tensor": {"dtype": "DT_FLOAT", "tensorShape": {}}}, "dtype": {"type": "DT_FLOAT"}}}, {"name": "StatefulPartitionedCall/model_1/bidirectional_1/backward_lstm_1/PartitionedCall/ReverseV2/axis", "op": "Const", "attr": {"value": {"tensor": {"dtype": "DT_INT32", "tensorShape": {"dim": [{"size": "1"}]}}}, "dtype": {"type": "DT_INT32"}}}, {"name": "StatefulPartitionedCall/model_1/bidirectional_1/backward_lstm_1/PartitionedCall/TensorArrayUnstack/TensorListFromTensor/element_shape", "op": "Const", "attr": {"value": {"tensor": {"dtype": "DT_INT32", "tensorShape": {"dim": [{"size": "2"}]}}}, "dtype": {"type": "DT_INT32"}}}, {"name": "StatefulPartitionedCall/model_1/bidirectional_1/backward_lstm_1/Read/ReadVariableOp", "op": "Const", "attr": {"value": {"tensor": {"dtype": "DT_FLOAT", "tensorShape": {"dim": [{"size": "128"}, {"size": "256"}]}}}, "dtype": {"type": "DT_FLOAT"}}}, {"name": "StatefulPartitionedCall/model_1/bidirectional_1/backward_lstm_1/strided_slice/stack", "op": "Const", "attr": {"dtype": {"type": "DT_INT32"}, "value": {"tensor": {"dtype": "DT_INT32", "tensorShape": {"dim": [{"size": "1"}]}}}}}, {"name": "StatefulPartitionedCall/model_1/bidirectional_1/backward_lstm_1/strided_slice/stack_1", "op": "Const", "attr": {"dtype": {"type": "DT_INT32"}, "value": {"tensor": {"dtype": "DT_INT32", "tensorShape": {"dim": [{"size": "1"}]}}}}}, {"name": "StatefulPartitionedCall/model_1/bidirectional_1/backward_lstm_1/strided_slice/stack_2", "op": "Const", "attr": {"dtype": {"type": "DT_INT32"}, "value": {"tensor": {"dtype": "DT_INT32", "tensorShape": {"dim": [{"size": "1"}]}}}}}, {"name": "StatefulPartitionedCall/model_1/bidirectional_1/backward_lstm_1/zeros/packed/1", "op": "Const", "attr": {"dtype": {"type": "DT_INT32"}, "value": {"tensor": {"dtype": "DT_INT32", "tensorShape": {}}}}}, {"name": "StatefulPartitionedCall/model_1/bidirectional_1/backward_lstm_1/zeros/Const", "op": "Const", "attr": {"dtype": {"type": "DT_FLOAT"}, "value": {"tensor": {"dtype": "DT_FLOAT", "tensorShape": {}}}}}, {"name": "StatefulPartitionedCall/model_1/bidirectional_1/backward_lstm_1/Read_1/ReadVariableOp", "op": "Const", "attr": {"value": {"tensor": {"dtype": "DT_FLOAT", "tensorShape": {"dim": [{"size": "64"}, {"size": "256"}]}}}, "dtype": {"type": "DT_FLOAT"}}}, {"name": "StatefulPartitionedCall/model_1/bidirectional_1/backward_lstm_1/Read_2/ReadVariableOp", "op": "Const", "attr": {"dtype": {"type": "DT_FLOAT"}, "value": {"tensor": {"dtype": "DT_FLOAT", "tensorShape": {"dim": [{"size": "256"}]}}}}}, {"name": "StatefulPartitionedCall/model_1/bidirectional_1/backward_lstm_1/PartitionedCall/time", "op": "Const", "attr": {"value": {"tensor": {"dtype": "DT_INT32", "tensorShape": {}}}, "dtype": {"type": "DT_INT32"}}}, {"name": "StatefulPartitionedCall/model_1/bidirectional/forward_lstm/PartitionedCall/TensorArrayV2_1/element_shape", "op": "Const", "attr": {"value": {"tensor": {"dtype": "DT_INT32", "tensorShape": {"dim": [{"size": "2"}]}}}, "dtype": {"type": "DT_INT32"}}}, {"name": "StatefulPartitionedCall/model_1/bidirectional/forward_lstm/zeros_1/packed/1", "op": "Const", "attr": {"dtype": {"type": "DT_INT32"}, "value": {"tensor": {"dtype": "DT_INT32", "tensorShape": {}}}}}, {"name": "StatefulPartitionedCall/model_1/bidirectional/forward_lstm/zeros_1/Const", "op": "Const", "attr": {"dtype": {"type": "DT_FLOAT"}, "value": {"tensor": {"dtype": "DT_FLOAT", "tensorShape": {}}}}}, {"name": "StatefulPartitionedCall/model_1/bidirectional/forward_lstm/PartitionedCall/TensorArrayUnstack/TensorListFromTensor/element_shape", "op": "Const", "attr": {"dtype": {"type": "DT_INT32"}, "value": {"tensor": {"dtype": "DT_INT32", "tensorShape": {"dim": [{"size": "2"}]}}}}}, {"name": "StatefulPartitionedCall/model_1/bidirectional/forward_lstm/Read/ReadVariableOp", "op": "Const", "attr": {"value": {"tensor": {"dtype": "DT_FLOAT", "tensorShape": {"dim": [{"size": "256"}, {"size": "256"}]}}}, "dtype": {"type": "DT_FLOAT"}}}, {"name": "StatefulPartitionedCall/model_1/bidirectional/forward_lstm/strided_slice/stack", "op": "Const", "attr": {"value": {"tensor": {"dtype": "DT_INT32", "tensorShape": {"dim": [{"size": "1"}]}}}, "dtype": {"type": "DT_INT32"}}}, {"name": "StatefulPartitionedCall/model_1/bidirectional/forward_lstm/strided_slice/stack_1", "op": "Const", "attr": {"dtype": {"type": "DT_INT32"}, "value": {"tensor": {"dtype": "DT_INT32", "tensorShape": {"dim": [{"size": "1"}]}}}}}, {"name": "StatefulPartitionedCall/model_1/bidirectional/forward_lstm/strided_slice/stack_2", "op": "Const", "attr": {"value": {"tensor": {"dtype": "DT_INT32", "tensorShape": {"dim": [{"size": "1"}]}}}, "dtype": {"type": "DT_INT32"}}}, {"name": "StatefulPartitionedCall/model_1/bidirectional/forward_lstm/zeros/packed/1", "op": "Const", "attr": {"value": {"tensor": {"dtype": "DT_INT32", "tensorShape": {}}}, "dtype": {"type": "DT_INT32"}}}, {"name": "StatefulPartitionedCall/model_1/bidirectional/forward_lstm/zeros/Const", "op": "Const", "attr": {"dtype": {"type": "DT_FLOAT"}, "value": {"tensor": {"dtype": "DT_FLOAT", "tensorShape": {}}}}}, {"name": "StatefulPartitionedCall/model_1/bidirectional/forward_lstm/Read_1/ReadVariableOp", "op": "Const", "attr": {"dtype": {"type": "DT_FLOAT"}, "value": {"tensor": {"dtype": "DT_FLOAT", "tensorShape": {"dim": [{"size": "64"}, {"size": "256"}]}}}}}, {"name": "StatefulPartitionedCall/model_1/bidirectional/forward_lstm/Read_2/ReadVariableOp", "op": "Const", "attr": {"value": {"tensor": {"dtype": "DT_FLOAT", "tensorShape": {"dim": [{"size": "256"}]}}}, "dtype": {"type": "DT_FLOAT"}}}, {"name": "StatefulPartitionedCall/model_1/bidirectional/forward_lstm/PartitionedCall/time", "op": "Const", "attr": {"dtype": {"type": "DT_INT32"}, "value": {"tensor": {"dtype": "DT_INT32", "tensorShape": {}}}}}, {"name": "StatefulPartitionedCall/model_1/bidirectional/forward_lstm/PartitionedCall/transpose/perm", "op": "Const", "attr": {"value": {"tensor": {"dtype": "DT_INT32", "tensorShape": {"dim": [{"size": "3"}]}}}, "dtype": {"type": "DT_INT32"}}}, {"name": "StatefulPartitionedCall/model_1/bidirectional/forward_lstm/PartitionedCall/strided_slice/stack", "op": "Const", "attr": {"dtype": {"type": "DT_INT32"}, "value": {"tensor": {"dtype": "DT_INT32", "tensorShape": {"dim": [{"size": "1"}]}}}}}, {"name": "StatefulPartitionedCall/model_1/bidirectional/forward_lstm/PartitionedCall/strided_slice/stack_1", "op": "Const", "attr": {"value": {"tensor": {"dtype": "DT_INT32", "tensorShape": {"dim": [{"size": "1"}]}}}, "dtype": {"type": "DT_INT32"}}}, {"name": "StatefulPartitionedCall/model_1/bidirectional/forward_lstm/PartitionedCall/strided_slice/stack_2", "op": "Const", "attr": {"dtype": {"type": "DT_INT32"}, "value": {"tensor": {"dtype": "DT_INT32", "tensorShape": {"dim": [{"size": "1"}]}}}}}, {"name": "StatefulPartitionedCall/model_1/bidirectional/forward_lstm/PartitionedCall/while/loop_counter", "op": "Const", "attr": {"dtype": {"type": "DT_INT32"}, "value": {"tensor": {"dtype": "DT_INT32", "tensorShape": {}}}}}, {"name": "StatefulPartitionedCall/model_1/bidirectional/forward_lstm/PartitionedCall/TensorArrayV2Stack/TensorListStack/element_shape", "op": "Const", "attr": {"dtype": {"type": "DT_INT32"}, "value": {"tensor": {"dtype": "DT_INT32", "tensorShape": {"dim": [{"size": "2"}]}}}}}, {"name": "StatefulPartitionedCall/model_1/bidirectional/forward_lstm/PartitionedCall/transpose_1/perm", "op": "Const", "attr": {"dtype": {"type": "DT_INT32"}, "value": {"tensor": {"dtype": "DT_INT32", "tensorShape": {"dim": [{"size": "3"}]}}}}}, {"name": "StatefulPartitionedCall/model_1/bidirectional/backward_lstm/PartitionedCall/TensorArrayV2_1/element_shape", "op": "Const", "attr": {"dtype": {"type": "DT_INT32"}, "value": {"tensor": {"dtype": "DT_INT32", "tensorShape": {"dim": [{"size": "2"}]}}}}}, {"name": "StatefulPartitionedCall/model_1/bidirectional/backward_lstm/zeros_1/packed/1", "op": "Const", "attr": {"dtype": {"type": "DT_INT32"}, "value": {"tensor": {"dtype": "DT_INT32", "tensorShape": {}}}}}, {"name": "StatefulPartitionedCall/model_1/bidirectional/backward_lstm/zeros_1/Const", "op": "Const", "attr": {"dtype": {"type": "DT_FLOAT"}, "value": {"tensor": {"dtype": "DT_FLOAT", "tensorShape": {}}}}}, {"name": "StatefulPartitionedCall/model_1/bidirectional/backward_lstm/PartitionedCall/ReverseV2/axis", "op": "Const", "attr": {"dtype": {"type": "DT_INT32"}, "value": {"tensor": {"dtype": "DT_INT32", "tensorShape": {"dim": [{"size": "1"}]}}}}}, {"name": "StatefulPartitionedCall/model_1/bidirectional/backward_lstm/PartitionedCall/TensorArrayUnstack/TensorListFromTensor/element_shape", "op": "Const", "attr": {"value": {"tensor": {"dtype": "DT_INT32", "tensorShape": {"dim": [{"size": "2"}]}}}, "dtype": {"type": "DT_INT32"}}}, {"name": "StatefulPartitionedCall/model_1/bidirectional/backward_lstm/Read/ReadVariableOp", "op": "Const", "attr": {"dtype": {"type": "DT_FLOAT"}, "value": {"tensor": {"dtype": "DT_FLOAT", "tensorShape": {"dim": [{"size": "256"}, {"size": "256"}]}}}}}, {"name": "StatefulPartitionedCall/model_1/bidirectional/backward_lstm/strided_slice/stack", "op": "Const", "attr": {"dtype": {"type": "DT_INT32"}, "value": {"tensor": {"dtype": "DT_INT32", "tensorShape": {"dim": [{"size": "1"}]}}}}}, {"name": "StatefulPartitionedCall/model_1/bidirectional/backward_lstm/strided_slice/stack_1", "op": "Const", "attr": {"dtype": {"type": "DT_INT32"}, "value": {"tensor": {"dtype": "DT_INT32", "tensorShape": {"dim": [{"size": "1"}]}}}}}, {"name": "StatefulPartitionedCall/model_1/bidirectional/backward_lstm/strided_slice/stack_2", "op": "Const", "attr": {"dtype": {"type": "DT_INT32"}, "value": {"tensor": {"dtype": "DT_INT32", "tensorShape": {"dim": [{"size": "1"}]}}}}}, {"name": "StatefulPartitionedCall/model_1/bidirectional/backward_lstm/zeros/packed/1", "op": "Const", "attr": {"dtype": {"type": "DT_INT32"}, "value": {"tensor": {"dtype": "DT_INT32", "tensorShape": {}}}}}, {"name": "StatefulPartitionedCall/model_1/bidirectional/backward_lstm/zeros/Const", "op": "Const", "attr": {"dtype": {"type": "DT_FLOAT"}, "value": {"tensor": {"dtype": "DT_FLOAT", "tensorShape": {}}}}}, {"name": "StatefulPartitionedCall/model_1/bidirectional/backward_lstm/Read_1/ReadVariableOp", "op": "Const", "attr": {"value": {"tensor": {"dtype": "DT_FLOAT", "tensorShape": {"dim": [{"size": "64"}, {"size": "256"}]}}}, "dtype": {"type": "DT_FLOAT"}}}, {"name": "StatefulPartitionedCall/model_1/bidirectional/backward_lstm/Read_2/ReadVariableOp", "op": "Const", "attr": {"dtype": {"type": "DT_FLOAT"}, "value": {"tensor": {"dtype": "DT_FLOAT", "tensorShape": {"dim": [{"size": "256"}]}}}}}, {"name": "StatefulPartitionedCall/model_1/bidirectional/backward_lstm/PartitionedCall/time", "op": "Const", "attr": {"value": {"tensor": {"dtype": "DT_INT32", "tensorShape": {}}}, "dtype": {"type": "DT_INT32"}}}, {"name": "StatefulPartitionedCall/model_1/bidirectional/backward_lstm/PartitionedCall/transpose/perm", "op": "Const", "attr": {"dtype": {"type": "DT_INT32"}, "value": {"tensor": {"dtype": "DT_INT32", "tensorShape": {"dim": [{"size": "3"}]}}}}}, {"name": "StatefulPartitionedCall/model_1/bidirectional/backward_lstm/PartitionedCall/strided_slice/stack", "op": "Const", "attr": {"dtype": {"type": "DT_INT32"}, "value": {"tensor": {"dtype": "DT_INT32", "tensorShape": {"dim": [{"size": "1"}]}}}}}, {"name": "StatefulPartitionedCall/model_1/bidirectional/backward_lstm/PartitionedCall/strided_slice/stack_1", "op": "Const", "attr": {"dtype": {"type": "DT_INT32"}, "value": {"tensor": {"dtype": "DT_INT32", "tensorShape": {"dim": [{"size": "1"}]}}}}}, {"name": "StatefulPartitionedCall/model_1/bidirectional/backward_lstm/PartitionedCall/strided_slice/stack_2", "op": "Const", "attr": {"value": {"tensor": {"dtype": "DT_INT32", "tensorShape": {"dim": [{"size": "1"}]}}}, "dtype": {"type": "DT_INT32"}}}, {"name": "StatefulPartitionedCall/model_1/bidirectional/backward_lstm/PartitionedCall/while/loop_counter", "op": "Const", "attr": {"dtype": {"type": "DT_INT32"}, "value": {"tensor": {"dtype": "DT_INT32", "tensorShape": {}}}}}, {"name": "StatefulPartitionedCall/model_1/bidirectional/backward_lstm/PartitionedCall/TensorArrayV2Stack/TensorListStack/element_shape", "op": "Const", "attr": {"value": {"tensor": {"dtype": "DT_INT32", "tensorShape": {"dim": [{"size": "2"}]}}}, "dtype": {"type": "DT_INT32"}}}, {"name": "StatefulPartitionedCall/model_1/bidirectional/backward_lstm/PartitionedCall/transpose_1/perm", "op": "Const", "attr": {"dtype": {"type": "DT_INT32"}, "value": {"tensor": {"dtype": "DT_INT32", "tensorShape": {"dim": [{"size": "3"}]}}}}}, {"name": "StatefulPartitionedCall/model_1/bidirectional/ReverseV2/axis", "op": "Const", "attr": {"dtype": {"type": "DT_INT32"}, "value": {"tensor": {"dtype": "DT_INT32", "tensorShape": {"dim": [{"size": "1"}]}}}}}, {"name": "StatefulPartitionedCall/model_1/bidirectional/concat/axis", "op": "Const", "attr": {"value": {"tensor": {"dtype": "DT_INT32", "tensorShape": {}}}, "dtype": {"type": "DT_INT32"}}}, {"name": "StatefulPartitionedCall/model_1/bidirectional_1/backward_lstm_1/PartitionedCall/transpose/perm", "op": "Const", "attr": {"value": {"tensor": {"dtype": "DT_INT32", "tensorShape": {"dim": [{"size": "3"}]}}}, "dtype": {"type": "DT_INT32"}}}, {"name": "StatefulPartitionedCall/model_1/bidirectional_1/backward_lstm_1/PartitionedCall/strided_slice/stack", "op": "Const", "attr": {"dtype": {"type": "DT_INT32"}, "value": {"tensor": {"dtype": "DT_INT32", "tensorShape": {"dim": [{"size": "1"}]}}}}}, {"name": "StatefulPartitionedCall/model_1/bidirectional_1/backward_lstm_1/PartitionedCall/strided_slice/stack_1", "op": "Const", "attr": {"dtype": {"type": "DT_INT32"}, "value": {"tensor": {"dtype": "DT_INT32", "tensorShape": {"dim": [{"size": "1"}]}}}}}, {"name": "StatefulPartitionedCall/model_1/bidirectional_1/backward_lstm_1/PartitionedCall/strided_slice/stack_2", "op": "Const", "attr": {"dtype": {"type": "DT_INT32"}, "value": {"tensor": {"dtype": "DT_INT32", "tensorShape": {"dim": [{"size": "1"}]}}}}}, {"name": "StatefulPartitionedCall/model_1/bidirectional_1/backward_lstm_1/PartitionedCall/while/loop_counter", "op": "Const", "attr": {"dtype": {"type": "DT_INT32"}, "value": {"tensor": {"dtype": "DT_INT32", "tensorShape": {}}}}}, {"name": "StatefulPartitionedCall/model_1/bidirectional_1/backward_lstm_1/PartitionedCall/TensorArrayV2Stack/TensorListStack/element_shape", "op": "Const", "attr": {"dtype": {"type": "DT_INT32"}, "value": {"tensor": {"dtype": "DT_INT32", "tensorShape": {"dim": [{"size": "2"}]}}}}}, {"name": "StatefulPartitionedCall/model_1/bidirectional_1/backward_lstm_1/PartitionedCall/strided_slice_2/stack", "op": "Const", "attr": {"dtype": {"type": "DT_INT32"}, "value": {"tensor": {"dtype": "DT_INT32", "tensorShape": {"dim": [{"size": "1"}]}}}}}, {"name": "StatefulPartitionedCall/model_1/bidirectional_1/backward_lstm_1/PartitionedCall/strided_slice_2/stack_1", "op": "Const", "attr": {"value": {"tensor": {"dtype": "DT_INT32", "tensorShape": {"dim": [{"size": "1"}]}}}, "dtype": {"type": "DT_INT32"}}}, {"name": "StatefulPartitionedCall/model_1/bidirectional_1/backward_lstm_1/PartitionedCall/strided_slice_2/stack_2", "op": "Const", "attr": {"dtype": {"type": "DT_INT32"}, "value": {"tensor": {"dtype": "DT_INT32", "tensorShape": {"dim": [{"size": "1"}]}}}}}, {"name": "StatefulPartitionedCall/model_1/bidirectional_1/concat/axis", "op": "Const", "attr": {"dtype": {"type": "DT_INT32"}, "value": {"tensor": {"dtype": "DT_INT32", "tensorShape": {}}}}}, {"name": "StatefulPartitionedCall/model_1/dense/MatMul/ReadVariableOp", "op": "Const", "attr": {"value": {"tensor": {"dtype": "DT_FLOAT", "tensorShape": {"dim": [{"size": "128"}, {"size": "28"}]}}}, "dtype": {"type": "DT_FLOAT"}}}, {"name": "StatefulPartitionedCall/model_1/dense/BiasAdd/ReadVariableOp", "op": "Const", "attr": {"dtype": {"type": "DT_FLOAT"}, "value": {"tensor": {"dtype": "DT_FLOAT", "tensorShape": {"dim": [{"size": "28"}]}}}}}, {"name": "args_0", "op": "Placeholder", "attr": {"shape": {"shape": {"dim": [{"size": "-1"}, {"size": "128"}, {"size": "256"}]}}, "dtype": {"type": "DT_FLOAT"}}}, {"name": "StatefulPartitionedCall/model_1/bidirectional_1/forward_lstm_1/PartitionedCall/TensorArrayV2_1", "op": "TensorListReserve", "input": ["StatefulPartitionedCall/model_1/bidirectional_1/forward_lstm_1/PartitionedCall/TensorArrayV2_1/element_shape", "StatefulPartitionedCall/model_1/bidirectional_1/forward_lstm_1/PartitionedCall/TensorArrayV2_1/num_elements"], "attr": {"shape_type": {"type": "DT_INT32"}, "element_dtype": {"type": "DT_FLOAT"}}, "experimentalType": {"typeId": "TFT_PRODUCT", "args": [{"typeId": "TFT_ARRAY", "args": [{"typeId": "TFT_TENSOR", "args": [{"typeId": "TFT_FLOAT"}]}]}]}}, {"name": "StatefulPartitionedCall/model_1/bidirectional_1/forward_lstm_1/PartitionedCall/while/enter/_191", "op": "Enter", "input": ["StatefulPartitionedCall/model_1/bidirectional_1/forward_lstm_1/Read/ReadVariableOp"], "attr": {"is_constant": {"b": false}, "T": {"type": "DT_FLOAT"}, "frame_name": {"s": "U3RhdGVmdWxQYXJ0aXRpb25lZENhbGwvbW9kZWxfMS9iaWRpcmVjdGlvbmFsXzEvZm9yd2FyZF9sc3RtXzEvUGFydGl0aW9uZWRDYWxsL3doaWxl"}, "parallel_iterations": {"i": "32"}}}, {"name": "StatefulPartitionedCall/model_1/bidirectional_1/forward_lstm_1/PartitionedCall/while/enter/_192", "op": "Enter", "input": ["StatefulPartitionedCall/model_1/bidirectional_1/forward_lstm_1/Read_1/ReadVariableOp"], "attr": {"is_constant": {"b": false}, "frame_name": {"s": "U3RhdGVmdWxQYXJ0aXRpb25lZENhbGwvbW9kZWxfMS9iaWRpcmVjdGlvbmFsXzEvZm9yd2FyZF9sc3RtXzEvUGFydGl0aW9uZWRDYWxsL3doaWxl"}, "parallel_iterations": {"i": "32"}, "T": {"type": "DT_FLOAT"}}}, {"name": "StatefulPartitionedCall/model_1/bidirectional_1/forward_lstm_1/PartitionedCall/while/enter/_193", "op": "Enter", "input": ["StatefulPartitionedCall/model_1/bidirectional_1/forward_lstm_1/Read_2/ReadVariableOp"], "attr": {"frame_name": {"s": "U3RhdGVmdWxQYXJ0aXRpb25lZENhbGwvbW9kZWxfMS9iaWRpcmVjdGlvbmFsXzEvZm9yd2FyZF9sc3RtXzEvUGFydGl0aW9uZWRDYWxsL3doaWxl"}, "is_constant": {"b": false}, "T": {"type": "DT_FLOAT"}, "parallel_iterations": {"i": "32"}}}, {"name": "StatefulPartitionedCall/model_1/bidirectional_1/forward_lstm_1/PartitionedCall/while/enter/_185", "op": "Enter", "input": ["StatefulPartitionedCall/model_1/bidirectional_1/forward_lstm_1/PartitionedCall/time"], "attr": {"frame_name": {"s": "U3RhdGVmdWxQYXJ0aXRpb25lZENhbGwvbW9kZWxfMS9iaWRpcmVjdGlvbmFsXzEvZm9yd2FyZF9sc3RtXzEvUGFydGl0aW9uZWRDYWxsL3doaWxl"}, "T": {"type": "DT_INT32"}, "parallel_iterations": {"i": "32"}, "is_constant": {"b": false}}}, {"name": "StatefulPartitionedCall/model_1/bidirectional_1/forward_lstm_1/PartitionedCall/while/enter/_183", "op": "Enter", "input": ["StatefulPartitionedCall/model_1/bidirectional_1/forward_lstm_1/PartitionedCall/while/loop_counter"], "attr": {"frame_name": {"s": "U3RhdGVmdWxQYXJ0aXRpb25lZENhbGwvbW9kZWxfMS9iaWRpcmVjdGlvbmFsXzEvZm9yd2FyZF9sc3RtXzEvUGFydGl0aW9uZWRDYWxsL3doaWxl"}, "parallel_iterations": {"i": "32"}, "T": {"type": "DT_INT32"}, "is_constant": {"b": false}}}, {"name": "StatefulPartitionedCall/model_1/bidirectional_1/backward_lstm_1/PartitionedCall/TensorArrayV2_1", "op": "TensorListReserve", "input": ["StatefulPartitionedCall/model_1/bidirectional_1/backward_lstm_1/PartitionedCall/TensorArrayV2_1/element_shape", "StatefulPartitionedCall/model_1/bidirectional_1/backward_lstm_1/PartitionedCall/TensorArrayV2_1/num_elements"], "attr": {"shape_type": {"type": "DT_INT32"}, "element_dtype": {"type": "DT_FLOAT"}}, "experimentalType": {"typeId": "TFT_PRODUCT", "args": [{"typeId": "TFT_ARRAY", "args": [{"typeId": "TFT_TENSOR", "args": [{"typeId": "TFT_FLOAT"}]}]}]}}, {"name": "StatefulPartitionedCall/model_1/bidirectional_1/backward_lstm_1/PartitionedCall/while/enter/_251", "op": "Enter", "input": ["StatefulPartitionedCall/model_1/bidirectional_1/backward_lstm_1/Read/ReadVariableOp"], "attr": {"is_constant": {"b": false}, "frame_name": {"s": "U3RhdGVmdWxQYXJ0aXRpb25lZENhbGwvbW9kZWxfMS9iaWRpcmVjdGlvbmFsXzEvYmFja3dhcmRfbHN0bV8xL1BhcnRpdGlvbmVkQ2FsbC93aGlsZQ=="}, "parallel_iterations": {"i": "32"}, "T": {"type": "DT_FLOAT"}}}, {"name": "StatefulPartitionedCall/model_1/bidirectional_1/backward_lstm_1/PartitionedCall/while/enter/_252", "op": "Enter", "input": ["StatefulPartitionedCall/model_1/bidirectional_1/backward_lstm_1/Read_1/ReadVariableOp"], "attr": {"T": {"type": "DT_FLOAT"}, "is_constant": {"b": false}, "parallel_iterations": {"i": "32"}, "frame_name": {"s": "U3RhdGVmdWxQYXJ0aXRpb25lZENhbGwvbW9kZWxfMS9iaWRpcmVjdGlvbmFsXzEvYmFja3dhcmRfbHN0bV8xL1BhcnRpdGlvbmVkQ2FsbC93aGlsZQ=="}}}, {"name": "StatefulPartitionedCall/model_1/bidirectional_1/backward_lstm_1/PartitionedCall/while/enter/_253", "op": "Enter", "input": ["StatefulPartitionedCall/model_1/bidirectional_1/backward_lstm_1/Read_2/ReadVariableOp"], "attr": {"frame_name": {"s": "U3RhdGVmdWxQYXJ0aXRpb25lZENhbGwvbW9kZWxfMS9iaWRpcmVjdGlvbmFsXzEvYmFja3dhcmRfbHN0bV8xL1BhcnRpdGlvbmVkQ2FsbC93aGlsZQ=="}, "T": {"type": "DT_FLOAT"}, "parallel_iterations": {"i": "32"}, "is_constant": {"b": false}}}, {"name": "StatefulPartitionedCall/model_1/bidirectional_1/backward_lstm_1/PartitionedCall/while/enter/_245", "op": "Enter", "input": ["StatefulPartitionedCall/model_1/bidirectional_1/backward_lstm_1/PartitionedCall/time"], "attr": {"parallel_iterations": {"i": "32"}, "is_constant": {"b": false}, "T": {"type": "DT_INT32"}, "frame_name": {"s": "U3RhdGVmdWxQYXJ0aXRpb25lZENhbGwvbW9kZWxfMS9iaWRpcmVjdGlvbmFsXzEvYmFja3dhcmRfbHN0bV8xL1BhcnRpdGlvbmVkQ2FsbC93aGlsZQ=="}}}, {"name": "StatefulPartitionedCall/model_1/bidirectional/forward_lstm/PartitionedCall/while/enter/_71", "op": "Enter", "input": ["StatefulPartitionedCall/model_1/bidirectional/forward_lstm/Read/ReadVariableOp"], "attr": {"is_constant": {"b": false}, "frame_name": {"s": "U3RhdGVmdWxQYXJ0aXRpb25lZENhbGwvbW9kZWxfMS9iaWRpcmVjdGlvbmFsL2ZvcndhcmRfbHN0bS9QYXJ0aXRpb25lZENhbGwvd2hpbGU="}, "T": {"type": "DT_FLOAT"}, "parallel_iterations": {"i": "32"}}}, {"name": "StatefulPartitionedCall/model_1/bidirectional/forward_lstm/PartitionedCall/while/enter/_72", "op": "Enter", "input": ["StatefulPartitionedCall/model_1/bidirectional/forward_lstm/Read_1/ReadVariableOp"], "attr": {"parallel_iterations": {"i": "32"}, "frame_name": {"s": "U3RhdGVmdWxQYXJ0aXRpb25lZENhbGwvbW9kZWxfMS9iaWRpcmVjdGlvbmFsL2ZvcndhcmRfbHN0bS9QYXJ0aXRpb25lZENhbGwvd2hpbGU="}, "is_constant": {"b": false}, "T": {"type": "DT_FLOAT"}}}, {"name": "StatefulPartitionedCall/model_1/bidirectional/forward_lstm/PartitionedCall/while/enter/_73", "op": "Enter", "input": ["StatefulPartitionedCall/model_1/bidirectional/forward_lstm/Read_2/ReadVariableOp"], "attr": {"parallel_iterations": {"i": "32"}, "T": {"type": "DT_FLOAT"}, "frame_name": {"s": "U3RhdGVmdWxQYXJ0aXRpb25lZENhbGwvbW9kZWxfMS9iaWRpcmVjdGlvbmFsL2ZvcndhcmRfbHN0bS9QYXJ0aXRpb25lZENhbGwvd2hpbGU="}, "is_constant": {"b": false}}}, {"name": "StatefulPartitionedCall/model_1/bidirectional/forward_lstm/PartitionedCall/while/enter/_65", "op": "Enter", "input": ["StatefulPartitionedCall/model_1/bidirectional/forward_lstm/PartitionedCall/time"], "attr": {"parallel_iterations": {"i": "32"}, "T": {"type": "DT_INT32"}, "frame_name": {"s": "U3RhdGVmdWxQYXJ0aXRpb25lZENhbGwvbW9kZWxfMS9iaWRpcmVjdGlvbmFsL2ZvcndhcmRfbHN0bS9QYXJ0aXRpb25lZENhbGwvd2hpbGU="}, "is_constant": {"b": false}}}, {"name": "StatefulPartitionedCall/model_1/bidirectional/forward_lstm/PartitionedCall/while/enter/_63", "op": "Enter", "input": ["StatefulPartitionedCall/model_1/bidirectional/forward_lstm/PartitionedCall/while/loop_counter"], "attr": {"frame_name": {"s": "U3RhdGVmdWxQYXJ0aXRpb25lZENhbGwvbW9kZWxfMS9iaWRpcmVjdGlvbmFsL2ZvcndhcmRfbHN0bS9QYXJ0aXRpb25lZENhbGwvd2hpbGU="}, "T": {"type": "DT_INT32"}, "is_constant": {"b": false}, "parallel_iterations": {"i": "32"}}}, {"name": "StatefulPartitionedCall/model_1/bidirectional/backward_lstm/PartitionedCall/while/enter/_131", "op": "Enter", "input": ["StatefulPartitionedCall/model_1/bidirectional/backward_lstm/Read/ReadVariableOp"], "attr": {"T": {"type": "DT_FLOAT"}, "parallel_iterations": {"i": "32"}, "is_constant": {"b": false}, "frame_name": {"s": "U3RhdGVmdWxQYXJ0aXRpb25lZENhbGwvbW9kZWxfMS9iaWRpcmVjdGlvbmFsL2JhY2t3YXJkX2xzdG0vUGFydGl0aW9uZWRDYWxsL3doaWxl"}}}, {"name": "StatefulPartitionedCall/model_1/bidirectional/backward_lstm/PartitionedCall/while/enter/_132", "op": "Enter", "input": ["StatefulPartitionedCall/model_1/bidirectional/backward_lstm/Read_1/ReadVariableOp"], "attr": {"T": {"type": "DT_FLOAT"}, "parallel_iterations": {"i": "32"}, "frame_name": {"s": "U3RhdGVmdWxQYXJ0aXRpb25lZENhbGwvbW9kZWxfMS9iaWRpcmVjdGlvbmFsL2JhY2t3YXJkX2xzdG0vUGFydGl0aW9uZWRDYWxsL3doaWxl"}, "is_constant": {"b": false}}}, {"name": "StatefulPartitionedCall/model_1/bidirectional/backward_lstm/PartitionedCall/while/enter/_133", "op": "Enter", "input": ["StatefulPartitionedCall/model_1/bidirectional/backward_lstm/Read_2/ReadVariableOp"], "attr": {"parallel_iterations": {"i": "32"}, "T": {"type": "DT_FLOAT"}, "frame_name": {"s": "U3RhdGVmdWxQYXJ0aXRpb25lZENhbGwvbW9kZWxfMS9iaWRpcmVjdGlvbmFsL2JhY2t3YXJkX2xzdG0vUGFydGl0aW9uZWRDYWxsL3doaWxl"}, "is_constant": {"b": false}}}, {"name": "StatefulPartitionedCall/model_1/bidirectional/backward_lstm/PartitionedCall/while/enter/_125", "op": "Enter", "input": ["StatefulPartitionedCall/model_1/bidirectional/backward_lstm/PartitionedCall/time"], "attr": {"T": {"type": "DT_INT32"}, "is_constant": {"b": false}, "parallel_iterations": {"i": "32"}, "frame_name": {"s": "U3RhdGVmdWxQYXJ0aXRpb25lZENhbGwvbW9kZWxfMS9iaWRpcmVjdGlvbmFsL2JhY2t3YXJkX2xzdG0vUGFydGl0aW9uZWRDYWxsL3doaWxl"}}}, {"name": "StatefulPartitionedCall/model_1/bidirectional/backward_lstm/PartitionedCall/while/enter/_123", "op": "Enter", "input": ["StatefulPartitionedCall/model_1/bidirectional/backward_lstm/PartitionedCall/while/loop_counter"], "attr": {"parallel_iterations": {"i": "32"}, "frame_name": {"s": "U3RhdGVmdWxQYXJ0aXRpb25lZENhbGwvbW9kZWxfMS9iaWRpcmVjdGlvbmFsL2JhY2t3YXJkX2xzdG0vUGFydGl0aW9uZWRDYWxsL3doaWxl"}, "is_constant": {"b": false}, "T": {"type": "DT_INT32"}}}, {"name": "StatefulPartitionedCall/model_1/bidirectional_1/backward_lstm_1/PartitionedCall/while/enter/_243", "op": "Enter", "input": ["StatefulPartitionedCall/model_1/bidirectional_1/backward_lstm_1/PartitionedCall/while/loop_counter"], "attr": {"parallel_iterations": {"i": "32"}, "T": {"type": "DT_INT32"}, "is_constant": {"b": false}, "frame_name": {"s": "U3RhdGVmdWxQYXJ0aXRpb25lZENhbGwvbW9kZWxfMS9iaWRpcmVjdGlvbmFsXzEvYmFja3dhcmRfbHN0bV8xL1BhcnRpdGlvbmVkQ2FsbC93aGlsZQ=="}}}, {"name": "StatefulPartitionedCall/model_1/bidirectional/forward_lstm/Shape", "op": "Shape", "input": ["args_0"], "attr": {"out_type": {"type": "DT_INT32"}, "T": {"type": "DT_FLOAT"}}, "experimentalType": {"typeId": "TFT_PRODUCT", "args": [{"typeId": "TFT_SHAPE_TENSOR", "args": [{"typeId": "TFT_INT32"}]}]}}, {"name": "StatefulPartitionedCall/model_1/bidirectional/forward_lstm/PartitionedCall/transpose", "op": "Transpose", "input": ["args_0", "StatefulPartitionedCall/model_1/bidirectional/forward_lstm/PartitionedCall/transpose/perm"], "attr": {"T": {"type": "DT_FLOAT"}, "Tperm": {"type": "DT_INT32"}, "_input_shapes": {"list": {"shape": [{"dim": [{"size": "-2"}, {"size": "-16"}, {"size": "256"}]}, {"dim": [{"size": "3"}]}]}}}}, {"name": "StatefulPartitionedCall/model_1/bidirectional/backward_lstm/Shape", "op": "Shape", "input": ["args_0"], "attr": {"out_type": {"type": "DT_INT32"}, "T": {"type": "DT_FLOAT"}}, "experimentalType": {"typeId": "TFT_PRODUCT", "args": [{"typeId": "TFT_SHAPE_TENSOR", "args": [{"typeId": "TFT_INT32"}]}]}}, {"name": "StatefulPartitionedCall/model_1/bidirectional/backward_lstm/PartitionedCall/transpose", "op": "Transpose", "input": ["args_0", "StatefulPartitionedCall/model_1/bidirectional/backward_lstm/PartitionedCall/transpose/perm"], "attr": {"Tperm": {"type": "DT_INT32"}, "_input_shapes": {"list": {"shape": [{"dim": [{"size": "-2"}, {"size": "-16"}, {"size": "256"}]}, {"dim": [{"size": "3"}]}]}}, "T": {"type": "DT_FLOAT"}}}, {"name": "StatefulPartitionedCall/model_1/bidirectional_1/forward_lstm_1/PartitionedCall/while/enter/_186", "op": "Enter", "input": ["StatefulPartitionedCall/model_1/bidirectional_1/forward_lstm_1/PartitionedCall/TensorArrayV2_1"], "attr": {"T": {"type": "DT_VARIANT"}, "frame_name": {"s": "U3RhdGVmdWxQYXJ0aXRpb25lZENhbGwvbW9kZWxfMS9iaWRpcmVjdGlvbmFsXzEvZm9yd2FyZF9sc3RtXzEvUGFydGl0aW9uZWRDYWxsL3doaWxl"}, "is_constant": {"b": false}, "parallel_iterations": {"i": "32"}}}, {"name": "StatefulPartitionedCall/model_1/bidirectional_1/forward_lstm_1/PartitionedCall/while/merge/_202", "op": "Merge", "input": ["StatefulPartitionedCall/model_1/bidirectional_1/forward_lstm_1/PartitionedCall/while/enter/_191", "StatefulPartitionedCall/model_1/bidirectional_1/forward_lstm_1/PartitionedCall/while/next_iteration/_238"], "attr": {"N": {"i": "2"}, "T": {"type": "DT_FLOAT"}}}, {"name": "StatefulPartitionedCall/model_1/bidirectional_1/forward_lstm_1/PartitionedCall/while/merge/_203", "op": "Merge", "input": ["StatefulPartitionedCall/model_1/bidirectional_1/forward_lstm_1/PartitionedCall/while/enter/_192", "StatefulPartitionedCall/model_1/bidirectional_1/forward_lstm_1/PartitionedCall/while/next_iteration/_239"], "attr": {"T": {"type": "DT_FLOAT"}, "N": {"i": "2"}}}, {"name": "StatefulPartitionedCall/model_1/bidirectional_1/forward_lstm_1/PartitionedCall/while/merge/_204", "op": "Merge", "input": ["StatefulPartitionedCall/model_1/bidirectional_1/forward_lstm_1/PartitionedCall/while/enter/_193", "StatefulPartitionedCall/model_1/bidirectional_1/forward_lstm_1/PartitionedCall/while/next_iteration/_240"], "attr": {"T": {"type": "DT_FLOAT"}, "N": {"i": "2"}}}, {"name": "StatefulPartitionedCall/model_1/bidirectional_1/forward_lstm_1/PartitionedCall/while/merge/_196", "op": "Merge", "input": ["StatefulPartitionedCall/model_1/bidirectional_1/forward_lstm_1/PartitionedCall/while/enter/_185", "StatefulPartitionedCall/model_1/bidirectional_1/forward_lstm_1/PartitionedCall/while/next_iteration/_232"], "attr": {"T": {"type": "DT_INT32"}, "N": {"i": "2"}}}, {"name": "StatefulPartitionedCall/model_1/bidirectional_1/forward_lstm_1/PartitionedCall/while/merge/_194", "op": "Merge", "input": ["StatefulPartitionedCall/model_1/bidirectional_1/forward_lstm_1/PartitionedCall/while/enter/_183", "StatefulPartitionedCall/model_1/bidirectional_1/forward_lstm_1/PartitionedCall/while/next_iteration/_230"], "attr": {"_has_manual_control_dependencies": {"b": true}, "T": {"type": "DT_INT32"}, "N": {"i": "2"}}}, {"name": "StatefulPartitionedCall/model_1/bidirectional_1/backward_lstm_1/PartitionedCall/while/enter/_246", "op": "Enter", "input": ["StatefulPartitionedCall/model_1/bidirectional_1/backward_lstm_1/PartitionedCall/TensorArrayV2_1"], "attr": {"is_constant": {"b": false}, "parallel_iterations": {"i": "32"}, "frame_name": {"s": "U3RhdGVmdWxQYXJ0aXRpb25lZENhbGwvbW9kZWxfMS9iaWRpcmVjdGlvbmFsXzEvYmFja3dhcmRfbHN0bV8xL1BhcnRpdGlvbmVkQ2FsbC93aGlsZQ=="}, "T": {"type": "DT_VARIANT"}}}, {"name": "StatefulPartitionedCall/model_1/bidirectional_1/backward_lstm_1/PartitionedCall/while/merge/_262", "op": "Merge", "input": ["StatefulPartitionedCall/model_1/bidirectional_1/backward_lstm_1/PartitionedCall/while/enter/_251", "StatefulPartitionedCall/model_1/bidirectional_1/backward_lstm_1/PartitionedCall/while/next_iteration/_298"], "attr": {"T": {"type": "DT_FLOAT"}, "N": {"i": "2"}}}, {"name": "StatefulPartitionedCall/model_1/bidirectional_1/backward_lstm_1/PartitionedCall/while/merge/_263", "op": "Merge", "input": ["StatefulPartitionedCall/model_1/bidirectional_1/backward_lstm_1/PartitionedCall/while/enter/_252", "StatefulPartitionedCall/model_1/bidirectional_1/backward_lstm_1/PartitionedCall/while/next_iteration/_299"], "attr": {"T": {"type": "DT_FLOAT"}, "N": {"i": "2"}}}, {"name": "StatefulPartitionedCall/model_1/bidirectional_1/backward_lstm_1/PartitionedCall/while/merge/_264", "op": "Merge", "input": ["StatefulPartitionedCall/model_1/bidirectional_1/backward_lstm_1/PartitionedCall/while/enter/_253", "StatefulPartitionedCall/model_1/bidirectional_1/backward_lstm_1/PartitionedCall/while/next_iteration/_300"], "attr": {"N": {"i": "2"}, "T": {"type": "DT_FLOAT"}}}, {"name": "StatefulPartitionedCall/model_1/bidirectional_1/backward_lstm_1/PartitionedCall/while/merge/_256", "op": "Merge", "input": ["StatefulPartitionedCall/model_1/bidirectional_1/backward_lstm_1/PartitionedCall/while/enter/_245", "StatefulPartitionedCall/model_1/bidirectional_1/backward_lstm_1/PartitionedCall/while/next_iteration/_292"], "attr": {"N": {"i": "2"}, "T": {"type": "DT_INT32"}}}, {"name": "StatefulPartitionedCall/model_1/bidirectional/forward_lstm/PartitionedCall/while/merge/_82", "op": "Merge", "input": ["StatefulPartitionedCall/model_1/bidirectional/forward_lstm/PartitionedCall/while/enter/_71", "StatefulPartitionedCall/model_1/bidirectional/forward_lstm/PartitionedCall/while/next_iteration/_118"], "attr": {"N": {"i": "2"}, "T": {"type": "DT_FLOAT"}}}, {"name": "StatefulPartitionedCall/model_1/bidirectional/forward_lstm/PartitionedCall/while/merge/_83", "op": "Merge", "input": ["StatefulPartitionedCall/model_1/bidirectional/forward_lstm/PartitionedCall/while/enter/_72", "StatefulPartitionedCall/model_1/bidirectional/forward_lstm/PartitionedCall/while/next_iteration/_119"], "attr": {"T": {"type": "DT_FLOAT"}, "N": {"i": "2"}}}, {"name": "StatefulPartitionedCall/model_1/bidirectional/forward_lstm/PartitionedCall/while/merge/_84", "op": "Merge", "input": ["StatefulPartitionedCall/model_1/bidirectional/forward_lstm/PartitionedCall/while/enter/_73", "StatefulPartitionedCall/model_1/bidirectional/forward_lstm/PartitionedCall/while/next_iteration/_120"], "attr": {"T": {"type": "DT_FLOAT"}, "N": {"i": "2"}}}, {"name": "StatefulPartitionedCall/model_1/bidirectional/forward_lstm/PartitionedCall/while/merge/_76", "op": "Merge", "input": ["StatefulPartitionedCall/model_1/bidirectional/forward_lstm/PartitionedCall/while/enter/_65", "StatefulPartitionedCall/model_1/bidirectional/forward_lstm/PartitionedCall/while/next_iteration/_112"], "attr": {"N": {"i": "2"}, "T": {"type": "DT_INT32"}}}, {"name": "StatefulPartitionedCall/model_1/bidirectional/forward_lstm/PartitionedCall/while/merge/_74", "op": "Merge", "input": ["StatefulPartitionedCall/model_1/bidirectional/forward_lstm/PartitionedCall/while/enter/_63", "StatefulPartitionedCall/model_1/bidirectional/forward_lstm/PartitionedCall/while/next_iteration/_110"], "attr": {"T": {"type": "DT_INT32"}, "N": {"i": "2"}}}, {"name": "StatefulPartitionedCall/model_1/bidirectional/backward_lstm/PartitionedCall/while/merge/_142", "op": "Merge", "input": ["StatefulPartitionedCall/model_1/bidirectional/backward_lstm/PartitionedCall/while/enter/_131", "StatefulPartitionedCall/model_1/bidirectional/backward_lstm/PartitionedCall/while/next_iteration/_178"], "attr": {"N": {"i": "2"}, "T": {"type": "DT_FLOAT"}}}, {"name": "StatefulPartitionedCall/model_1/bidirectional/backward_lstm/PartitionedCall/while/merge/_143", "op": "Merge", "input": ["StatefulPartitionedCall/model_1/bidirectional/backward_lstm/PartitionedCall/while/enter/_132", "StatefulPartitionedCall/model_1/bidirectional/backward_lstm/PartitionedCall/while/next_iteration/_179"], "attr": {"N": {"i": "2"}, "T": {"type": "DT_FLOAT"}}}, {"name": "StatefulPartitionedCall/model_1/bidirectional/backward_lstm/PartitionedCall/while/merge/_144", "op": "Merge", "input": ["StatefulPartitionedCall/model_1/bidirectional/backward_lstm/PartitionedCall/while/enter/_133", "StatefulPartitionedCall/model_1/bidirectional/backward_lstm/PartitionedCall/while/next_iteration/_180"], "attr": {"N": {"i": "2"}, "T": {"type": "DT_FLOAT"}}}, {"name": "StatefulPartitionedCall/model_1/bidirectional/backward_lstm/PartitionedCall/while/merge/_136", "op": "Merge", "input": ["StatefulPartitionedCall/model_1/bidirectional/backward_lstm/PartitionedCall/while/enter/_125", "StatefulPartitionedCall/model_1/bidirectional/backward_lstm/PartitionedCall/while/next_iteration/_172"], "attr": {"N": {"i": "2"}, "T": {"type": "DT_INT32"}}}, {"name": "StatefulPartitionedCall/model_1/bidirectional/backward_lstm/PartitionedCall/while/merge/_134", "op": "Merge", "input": ["StatefulPartitionedCall/model_1/bidirectional/backward_lstm/PartitionedCall/while/enter/_123", "StatefulPartitionedCall/model_1/bidirectional/backward_lstm/PartitionedCall/while/next_iteration/_170"], "attr": {"T": {"type": "DT_INT32"}, "N": {"i": "2"}}}, {"name": "StatefulPartitionedCall/model_1/bidirectional_1/backward_lstm_1/PartitionedCall/while/merge/_254", "op": "Merge", "input": ["StatefulPartitionedCall/model_1/bidirectional_1/backward_lstm_1/PartitionedCall/while/enter/_243", "StatefulPartitionedCall/model_1/bidirectional_1/backward_lstm_1/PartitionedCall/while/next_iteration/_290"], "attr": {"T": {"type": "DT_INT32"}, "_has_manual_control_dependencies": {"b": true}, "N": {"i": "2"}}}, {"name": "StatefulPartitionedCall/model_1/bidirectional/forward_lstm/strided_slice", "op": "StridedSlice", "input": ["StatefulPartitionedCall/model_1/bidirectional/forward_lstm/Shape", "StatefulPartitionedCall/model_1/bidirectional/forward_lstm/strided_slice/stack", "StatefulPartitionedCall/model_1/bidirectional/forward_lstm/strided_slice/stack_1", "StatefulPartitionedCall/model_1/bidirectional/forward_lstm/strided_slice/stack_2"], "attr": {"ellipsis_mask": {"i": "0"}, "Index": {"type": "DT_INT32"}, "shrink_axis_mask": {"i": "1"}, "new_axis_mask": {"i": "0"}, "T": {"type": "DT_INT32"}, "end_mask": {"i": "0"}, "begin_mask": {"i": "0"}}}, {"name": "StatefulPartitionedCall/model_1/bidirectional/forward_lstm/PartitionedCall/TensorArrayUnstack/TensorListFromTensor", "op": "TensorListFromTensor", "input": ["StatefulPartitionedCall/model_1/bidirectional/forward_lstm/PartitionedCall/transpose", "StatefulPartitionedCall/model_1/bidirectional/forward_lstm/PartitionedCall/TensorArrayUnstack/TensorListFromTensor/element_shape"], "attr": {"element_dtype": {"type": "DT_FLOAT"}, "shape_type": {"type": "DT_INT32"}}, "experimentalType": {"typeId": "TFT_PRODUCT", "args": [{"typeId": "TFT_ARRAY", "args": [{"typeId": "TFT_TENSOR", "args": [{"typeId": "TFT_FLOAT"}]}]}]}}, {"name": "StatefulPartitionedCall/model_1/bidirectional/forward_lstm/PartitionedCall/Shape", "op": "Shape", "input": ["StatefulPartitionedCall/model_1/bidirectional/forward_lstm/PartitionedCall/transpose"], "attr": {"out_type": {"type": "DT_INT32"}, "T": {"type": "DT_FLOAT"}}, "experimentalType": {"typeId": "TFT_PRODUCT", "args": [{"typeId": "TFT_SHAPE_TENSOR", "args": [{"typeId": "TFT_INT32"}]}]}}, {"name": "StatefulPartitionedCall/model_1/bidirectional/backward_lstm/strided_slice", "op": "StridedSlice", "input": ["StatefulPartitionedCall/model_1/bidirectional/backward_lstm/Shape", "StatefulPartitionedCall/model_1/bidirectional/backward_lstm/strided_slice/stack", "StatefulPartitionedCall/model_1/bidirectional/backward_lstm/strided_slice/stack_1", "StatefulPartitionedCall/model_1/bidirectional/backward_lstm/strided_slice/stack_2"], "attr": {"new_axis_mask": {"i": "0"}, "begin_mask": {"i": "0"}, "shrink_axis_mask": {"i": "1"}, "ellipsis_mask": {"i": "0"}, "end_mask": {"i": "0"}, "T": {"type": "DT_INT32"}, "Index": {"type": "DT_INT32"}}}, {"name": "StatefulPartitionedCall/model_1/bidirectional/backward_lstm/PartitionedCall/ReverseV2", "op": "ReverseV2", "input": ["StatefulPartitionedCall/model_1/bidirectional/backward_lstm/PartitionedCall/transpose", "StatefulPartitionedCall/model_1/bidirectional/backward_lstm/PartitionedCall/ReverseV2/axis"], "attr": {"Tidx": {"type": "DT_INT32"}, "T": {"type": "DT_FLOAT"}}}, {"name": "StatefulPartitionedCall/model_1/bidirectional/backward_lstm/PartitionedCall/Shape", "op": "Shape", "input": ["StatefulPartitionedCall/model_1/bidirectional/backward_lstm/PartitionedCall/transpose"], "attr": {"T": {"type": "DT_FLOAT"}, "out_type": {"type": "DT_INT32"}}, "experimentalType": {"typeId": "TFT_PRODUCT", "args": [{"typeId": "TFT_SHAPE_TENSOR", "args": [{"typeId": "TFT_INT32"}]}]}}, {"name": "StatefulPartitionedCall/model_1/bidirectional_1/forward_lstm_1/PartitionedCall/while/merge/_197", "op": "Merge", "input": ["StatefulPartitionedCall/model_1/bidirectional_1/forward_lstm_1/PartitionedCall/while/enter/_186", "StatefulPartitionedCall/model_1/bidirectional_1/forward_lstm_1/PartitionedCall/while/next_iteration/_233"], "attr": {"T": {"type": "DT_VARIANT"}, "N": {"i": "2"}}}, {"name": "StatefulPartitionedCall/model_1/bidirectional_1/backward_lstm_1/PartitionedCall/while/merge/_257", "op": "Merge", "input": ["StatefulPartitionedCall/model_1/bidirectional_1/backward_lstm_1/PartitionedCall/while/enter/_246", "StatefulPartitionedCall/model_1/bidirectional_1/backward_lstm_1/PartitionedCall/while/next_iteration/_293"], "attr": {"N": {"i": "2"}, "T": {"type": "DT_VARIANT"}}}, {"name": "StatefulPartitionedCall/model_1/bidirectional/forward_lstm/zeros_1/packed", "op": "Pack", "input": ["StatefulPartitionedCall/model_1/bidirectional/forward_lstm/strided_slice", "StatefulPartitionedCall/model_1/bidirectional/forward_lstm/zeros_1/packed/1"], "attr": {"axis": {"i": "0"}, "T": {"type": "DT_INT32"}, "N": {"i": "2"}}}, {"name": "StatefulPartitionedCall/model_1/bidirectional/forward_lstm/zeros/packed", "op": "Pack", "input": ["StatefulPartitionedCall/model_1/bidirectional/forward_lstm/strided_slice", "StatefulPartitionedCall/model_1/bidirectional/forward_lstm/zeros/packed/1"], "attr": {"T": {"type": "DT_INT32"}, "axis": {"i": "0"}, "N": {"i": "2"}}}, {"name": "StatefulPartitionedCall/model_1/bidirectional/forward_lstm/PartitionedCall/while/enter/_70", "op": "Enter", "input": ["StatefulPartitionedCall/model_1/bidirectional/forward_lstm/PartitionedCall/TensorArrayUnstack/TensorListFromTensor"], "attr": {"T": {"type": "DT_VARIANT"}, "is_constant": {"b": false}, "frame_name": {"s": "U3RhdGVmdWxQYXJ0aXRpb25lZENhbGwvbW9kZWxfMS9iaWRpcmVjdGlvbmFsL2ZvcndhcmRfbHN0bS9QYXJ0aXRpb25lZENhbGwvd2hpbGU="}, "parallel_iterations": {"i": "32"}}}, {"name": "StatefulPartitionedCall/model_1/bidirectional/forward_lstm/PartitionedCall/strided_slice", "op": "StridedSlice", "input": ["StatefulPartitionedCall/model_1/bidirectional/forward_lstm/PartitionedCall/Shape", "StatefulPartitionedCall/model_1/bidirectional/forward_lstm/PartitionedCall/strided_slice/stack", "StatefulPartitionedCall/model_1/bidirectional/forward_lstm/PartitionedCall/strided_slice/stack_1", "StatefulPartitionedCall/model_1/bidirectional/forward_lstm/PartitionedCall/strided_slice/stack_2"], "attr": {"shrink_axis_mask": {"i": "1"}, "begin_mask": {"i": "0"}, "ellipsis_mask": {"i": "0"}, "end_mask": {"i": "0"}, "Index": {"type": "DT_INT32"}, "new_axis_mask": {"i": "0"}, "T": {"type": "DT_INT32"}}}, {"name": "StatefulPartitionedCall/model_1/bidirectional/backward_lstm/zeros_1/packed", "op": "Pack", "input": ["StatefulPartitionedCall/model_1/bidirectional/backward_lstm/strided_slice", "StatefulPartitionedCall/model_1/bidirectional/backward_lstm/zeros_1/packed/1"], "attr": {"axis": {"i": "0"}, "T": {"type": "DT_INT32"}, "N": {"i": "2"}}}, {"name": "StatefulPartitionedCall/model_1/bidirectional/backward_lstm/zeros/packed", "op": "Pack", "input": ["StatefulPartitionedCall/model_1/bidirectional/backward_lstm/strided_slice", "StatefulPartitionedCall/model_1/bidirectional/backward_lstm/zeros/packed/1"], "attr": {"T": {"type": "DT_INT32"}, "axis": {"i": "0"}, "N": {"i": "2"}}}, {"name": "StatefulPartitionedCall/model_1/bidirectional/backward_lstm/PartitionedCall/TensorArrayUnstack/TensorListFromTensor", "op": "TensorListFromTensor", "input": ["StatefulPartitionedCall/model_1/bidirectional/backward_lstm/PartitionedCall/ReverseV2", "StatefulPartitionedCall/model_1/bidirectional/backward_lstm/PartitionedCall/TensorArrayUnstack/TensorListFromTensor/element_shape"], "attr": {"element_dtype": {"type": "DT_FLOAT"}, "shape_type": {"type": "DT_INT32"}}, "experimentalType": {"typeId": "TFT_PRODUCT", "args": [{"typeId": "TFT_ARRAY", "args": [{"typeId": "TFT_TENSOR", "args": [{"typeId": "TFT_FLOAT"}]}]}]}}, {"name": "StatefulPartitionedCall/model_1/bidirectional/backward_lstm/PartitionedCall/strided_slice", "op": "StridedSlice", "input": ["StatefulPartitionedCall/model_1/bidirectional/backward_lstm/PartitionedCall/Shape", "StatefulPartitionedCall/model_1/bidirectional/backward_lstm/PartitionedCall/strided_slice/stack", "StatefulPartitionedCall/model_1/bidirectional/backward_lstm/PartitionedCall/strided_slice/stack_1", "StatefulPartitionedCall/model_1/bidirectional/backward_lstm/PartitionedCall/strided_slice/stack_2"], "attr": {"shrink_axis_mask": {"i": "1"}, "end_mask": {"i": "0"}, "new_axis_mask": {"i": "0"}, "begin_mask": {"i": "0"}, "Index": {"type": "DT_INT32"}, "ellipsis_mask": {"i": "0"}, "T": {"type": "DT_INT32"}}}, {"name": "StatefulPartitionedCall/model_1/bidirectional/forward_lstm/zeros_1", "op": "Fill", "input": ["StatefulPartitionedCall/model_1/bidirectional/forward_lstm/zeros_1/packed", "StatefulPartitionedCall/model_1/bidirectional/forward_lstm/zeros_1/Const"], "attr": {"index_type": {"type": "DT_INT32"}, "T": {"type": "DT_FLOAT"}}}, {"name": "StatefulPartitionedCall/model_1/bidirectional/forward_lstm/zeros", "op": "Fill", "input": ["StatefulPartitionedCall/model_1/bidirectional/forward_lstm/zeros/packed", "StatefulPartitionedCall/model_1/bidirectional/forward_lstm/zeros/Const"], "attr": {"T": {"type": "DT_FLOAT"}, "index_type": {"type": "DT_INT32"}}}, {"name": "StatefulPartitionedCall/model_1/bidirectional/forward_lstm/PartitionedCall/while/merge/_81", "op": "Merge", "input": ["StatefulPartitionedCall/model_1/bidirectional/forward_lstm/PartitionedCall/while/enter/_70", "StatefulPartitionedCall/model_1/bidirectional/forward_lstm/PartitionedCall/while/next_iteration/_117"], "attr": {"T": {"type": "DT_VARIANT"}, "N": {"i": "2"}}}, {"name": "StatefulPartitionedCall/model_1/bidirectional/forward_lstm/PartitionedCall/TensorArrayV2_1", "op": "TensorListReserve", "input": ["StatefulPartitionedCall/model_1/bidirectional/forward_lstm/PartitionedCall/TensorArrayV2_1/element_shape", "StatefulPartitionedCall/model_1/bidirectional/forward_lstm/PartitionedCall/strided_slice"], "attr": {"shape_type": {"type": "DT_INT32"}, "element_dtype": {"type": "DT_FLOAT"}}, "experimentalType": {"typeId": "TFT_PRODUCT", "args": [{"typeId": "TFT_ARRAY", "args": [{"typeId": "TFT_TENSOR", "args": [{"typeId": "TFT_FLOAT"}]}]}]}}, {"name": "StatefulPartitionedCall/model_1/bidirectional/forward_lstm/PartitionedCall/while/enter/_69", "op": "Enter", "input": ["StatefulPartitionedCall/model_1/bidirectional/forward_lstm/PartitionedCall/strided_slice"], "attr": {"frame_name": {"s": "U3RhdGVmdWxQYXJ0aXRpb25lZENhbGwvbW9kZWxfMS9iaWRpcmVjdGlvbmFsL2ZvcndhcmRfbHN0bS9QYXJ0aXRpb25lZENhbGwvd2hpbGU="}, "is_constant": {"b": false}, "parallel_iterations": {"i": "32"}, "T": {"type": "DT_INT32"}}}, {"name": "StatefulPartitionedCall/model_1/bidirectional/backward_lstm/zeros_1", "op": "Fill", "input": ["StatefulPartitionedCall/model_1/bidirectional/backward_lstm/zeros_1/packed", "StatefulPartitionedCall/model_1/bidirectional/backward_lstm/zeros_1/Const"], "attr": {"T": {"type": "DT_FLOAT"}, "index_type": {"type": "DT_INT32"}}}, {"name": "StatefulPartitionedCall/model_1/bidirectional/backward_lstm/zeros", "op": "Fill", "input": ["StatefulPartitionedCall/model_1/bidirectional/backward_lstm/zeros/packed", "StatefulPartitionedCall/model_1/bidirectional/backward_lstm/zeros/Const"], "attr": {"index_type": {"type": "DT_INT32"}, "T": {"type": "DT_FLOAT"}}}, {"name": "StatefulPartitionedCall/model_1/bidirectional/backward_lstm/PartitionedCall/while/enter/_130", "op": "Enter", "input": ["StatefulPartitionedCall/model_1/bidirectional/backward_lstm/PartitionedCall/TensorArrayUnstack/TensorListFromTensor"], "attr": {"parallel_iterations": {"i": "32"}, "is_constant": {"b": false}, "T": {"type": "DT_VARIANT"}, "frame_name": {"s": "U3RhdGVmdWxQYXJ0aXRpb25lZENhbGwvbW9kZWxfMS9iaWRpcmVjdGlvbmFsL2JhY2t3YXJkX2xzdG0vUGFydGl0aW9uZWRDYWxsL3doaWxl"}}}, {"name": "StatefulPartitionedCall/model_1/bidirectional/backward_lstm/PartitionedCall/TensorArrayV2_1", "op": "TensorListReserve", "input": ["StatefulPartitionedCall/model_1/bidirectional/backward_lstm/PartitionedCall/TensorArrayV2_1/element_shape", "StatefulPartitionedCall/model_1/bidirectional/backward_lstm/PartitionedCall/strided_slice"], "attr": {"shape_type": {"type": "DT_INT32"}, "element_dtype": {"type": "DT_FLOAT"}}, "experimentalType": {"typeId": "TFT_PRODUCT", "args": [{"typeId": "TFT_ARRAY", "args": [{"typeId": "TFT_TENSOR", "args": [{"typeId": "TFT_FLOAT"}]}]}]}}, {"name": "StatefulPartitionedCall/model_1/bidirectional/backward_lstm/PartitionedCall/while/enter/_129", "op": "Enter", "input": ["StatefulPartitionedCall/model_1/bidirectional/backward_lstm/PartitionedCall/strided_slice"], "attr": {"T": {"type": "DT_INT32"}, "is_constant": {"b": false}, "parallel_iterations": {"i": "32"}, "frame_name": {"s": "U3RhdGVmdWxQYXJ0aXRpb25lZENhbGwvbW9kZWxfMS9iaWRpcmVjdGlvbmFsL2JhY2t3YXJkX2xzdG0vUGFydGl0aW9uZWRDYWxsL3doaWxl"}}}, {"name": "StatefulPartitionedCall/model_1/bidirectional/forward_lstm/PartitionedCall/while/enter/_68", "op": "Enter", "input": ["StatefulPartitionedCall/model_1/bidirectional/forward_lstm/zeros_1"], "attr": {"T": {"type": "DT_FLOAT"}, "is_constant": {"b": false}, "parallel_iterations": {"i": "32"}, "frame_name": {"s": "U3RhdGVmdWxQYXJ0aXRpb25lZENhbGwvbW9kZWxfMS9iaWRpcmVjdGlvbmFsL2ZvcndhcmRfbHN0bS9QYXJ0aXRpb25lZENhbGwvd2hpbGU="}}}, {"name": "StatefulPartitionedCall/model_1/bidirectional/forward_lstm/PartitionedCall/while/enter/_67", "op": "Enter", "input": ["StatefulPartitionedCall/model_1/bidirectional/forward_lstm/zeros"], "attr": {"frame_name": {"s": "U3RhdGVmdWxQYXJ0aXRpb25lZENhbGwvbW9kZWxfMS9iaWRpcmVjdGlvbmFsL2ZvcndhcmRfbHN0bS9QYXJ0aXRpb25lZENhbGwvd2hpbGU="}, "T": {"type": "DT_FLOAT"}, "is_constant": {"b": false}, "parallel_iterations": {"i": "32"}}}, {"name": "StatefulPartitionedCall/model_1/bidirectional/forward_lstm/PartitionedCall/while/enter/_66", "op": "Enter", "input": ["StatefulPartitionedCall/model_1/bidirectional/forward_lstm/PartitionedCall/TensorArrayV2_1"], "attr": {"frame_name": {"s": "U3RhdGVmdWxQYXJ0aXRpb25lZENhbGwvbW9kZWxfMS9iaWRpcmVjdGlvbmFsL2ZvcndhcmRfbHN0bS9QYXJ0aXRpb25lZENhbGwvd2hpbGU="}, "T": {"type": "DT_VARIANT"}, "is_constant": {"b": false}, "parallel_iterations": {"i": "32"}}}, {"name": "StatefulPartitionedCall/model_1/bidirectional/forward_lstm/PartitionedCall/while/merge/_80", "op": "Merge", "input": ["StatefulPartitionedCall/model_1/bidirectional/forward_lstm/PartitionedCall/while/enter/_69", "StatefulPartitionedCall/model_1/bidirectional/forward_lstm/PartitionedCall/while/next_iteration/_116"], "attr": {"T": {"type": "DT_INT32"}, "N": {"i": "2"}}}, {"name": "StatefulPartitionedCall/model_1/bidirectional/backward_lstm/PartitionedCall/while/enter/_128", "op": "Enter", "input": ["StatefulPartitionedCall/model_1/bidirectional/backward_lstm/zeros_1"], "attr": {"frame_name": {"s": "U3RhdGVmdWxQYXJ0aXRpb25lZENhbGwvbW9kZWxfMS9iaWRpcmVjdGlvbmFsL2JhY2t3YXJkX2xzdG0vUGFydGl0aW9uZWRDYWxsL3doaWxl"}, "parallel_iterations": {"i": "32"}, "T": {"type": "DT_FLOAT"}, "is_constant": {"b": false}}}, {"name": "StatefulPartitionedCall/model_1/bidirectional/backward_lstm/PartitionedCall/while/enter/_127", "op": "Enter", "input": ["StatefulPartitionedCall/model_1/bidirectional/backward_lstm/zeros"], "attr": {"T": {"type": "DT_FLOAT"}, "parallel_iterations": {"i": "32"}, "is_constant": {"b": false}, "frame_name": {"s": "U3RhdGVmdWxQYXJ0aXRpb25lZENhbGwvbW9kZWxfMS9iaWRpcmVjdGlvbmFsL2JhY2t3YXJkX2xzdG0vUGFydGl0aW9uZWRDYWxsL3doaWxl"}}}, {"name": "StatefulPartitionedCall/model_1/bidirectional/backward_lstm/PartitionedCall/while/merge/_141", "op": "Merge", "input": ["StatefulPartitionedCall/model_1/bidirectional/backward_lstm/PartitionedCall/while/enter/_130", "StatefulPartitionedCall/model_1/bidirectional/backward_lstm/PartitionedCall/while/next_iteration/_177"], "attr": {"T": {"type": "DT_VARIANT"}, "N": {"i": "2"}}}, {"name": "StatefulPartitionedCall/model_1/bidirectional/backward_lstm/PartitionedCall/while/enter/_126", "op": "Enter", "input": ["StatefulPartitionedCall/model_1/bidirectional/backward_lstm/PartitionedCall/TensorArrayV2_1"], "attr": {"T": {"type": "DT_VARIANT"}, "parallel_iterations": {"i": "32"}, "frame_name": {"s": "U3RhdGVmdWxQYXJ0aXRpb25lZENhbGwvbW9kZWxfMS9iaWRpcmVjdGlvbmFsL2JhY2t3YXJkX2xzdG0vUGFydGl0aW9uZWRDYWxsL3doaWxl"}, "is_constant": {"b": false}}}, {"name": "StatefulPartitionedCall/model_1/bidirectional/backward_lstm/PartitionedCall/while/merge/_140", "op": "Merge", "input": ["StatefulPartitionedCall/model_1/bidirectional/backward_lstm/PartitionedCall/while/enter/_129", "StatefulPartitionedCall/model_1/bidirectional/backward_lstm/PartitionedCall/while/next_iteration/_176"], "attr": {"N": {"i": "2"}, "T": {"type": "DT_INT32"}}}, {"name": "StatefulPartitionedCall/model_1/bidirectional/forward_lstm/PartitionedCall/while/merge/_79", "op": "Merge", "input": ["StatefulPartitionedCall/model_1/bidirectional/forward_lstm/PartitionedCall/while/enter/_68", "StatefulPartitionedCall/model_1/bidirectional/forward_lstm/PartitionedCall/while/next_iteration/_115"], "attr": {"T": {"type": "DT_FLOAT"}, "N": {"i": "2"}}}, {"name": "StatefulPartitionedCall/model_1/bidirectional/forward_lstm/PartitionedCall/while/merge/_78", "op": "Merge", "input": ["StatefulPartitionedCall/model_1/bidirectional/forward_lstm/PartitionedCall/while/enter/_67", "StatefulPartitionedCall/model_1/bidirectional/forward_lstm/PartitionedCall/while/next_iteration/_114"], "attr": {"T": {"type": "DT_FLOAT"}, "N": {"i": "2"}}}, {"name": "StatefulPartitionedCall/model_1/bidirectional/forward_lstm/PartitionedCall/while/merge/_77", "op": "Merge", "input": ["StatefulPartitionedCall/model_1/bidirectional/forward_lstm/PartitionedCall/while/enter/_66", "StatefulPartitionedCall/model_1/bidirectional/forward_lstm/PartitionedCall/while/next_iteration/_113"], "attr": {"N": {"i": "2"}, "T": {"type": "DT_VARIANT"}}}, {"name": "StatefulPartitionedCall/model_1/bidirectional/forward_lstm/PartitionedCall/while/cond/_61/while/Less", "op": "Less", "input": ["StatefulPartitionedCall/model_1/bidirectional/forward_lstm/PartitionedCall/while/merge/_76", "StatefulPartitionedCall/model_1/bidirectional/forward_lstm/PartitionedCall/while/merge/_80", "^StatefulPartitionedCall/model_1/bidirectional/forward_lstm/PartitionedCall/while/merge/_74"], "attr": {"T": {"type": "DT_INT32"}}}, {"name": "StatefulPartitionedCall/model_1/bidirectional/backward_lstm/PartitionedCall/while/merge/_139", "op": "Merge", "input": ["StatefulPartitionedCall/model_1/bidirectional/backward_lstm/PartitionedCall/while/enter/_128", "StatefulPartitionedCall/model_1/bidirectional/backward_lstm/PartitionedCall/while/next_iteration/_175"], "attr": {"N": {"i": "2"}, "T": {"type": "DT_FLOAT"}}}, {"name": "StatefulPartitionedCall/model_1/bidirectional/backward_lstm/PartitionedCall/while/merge/_138", "op": "Merge", "input": ["StatefulPartitionedCall/model_1/bidirectional/backward_lstm/PartitionedCall/while/enter/_127", "StatefulPartitionedCall/model_1/bidirectional/backward_lstm/PartitionedCall/while/next_iteration/_174"], "attr": {"T": {"type": "DT_FLOAT"}, "N": {"i": "2"}}}, {"name": "StatefulPartitionedCall/model_1/bidirectional/backward_lstm/PartitionedCall/while/merge/_137", "op": "Merge", "input": ["StatefulPartitionedCall/model_1/bidirectional/backward_lstm/PartitionedCall/while/enter/_126", "StatefulPartitionedCall/model_1/bidirectional/backward_lstm/PartitionedCall/while/next_iteration/_173"], "attr": {"N": {"i": "2"}, "T": {"type": "DT_VARIANT"}}}, {"name": "StatefulPartitionedCall/model_1/bidirectional/backward_lstm/PartitionedCall/while/cond/_121/while/Less", "op": "Less", "input": ["StatefulPartitionedCall/model_1/bidirectional/backward_lstm/PartitionedCall/while/merge/_136", "StatefulPartitionedCall/model_1/bidirectional/backward_lstm/PartitionedCall/while/merge/_140", "^StatefulPartitionedCall/model_1/bidirectional/backward_lstm/PartitionedCall/while/merge/_134"], "attr": {"T": {"type": "DT_INT32"}}}, {"name": "StatefulPartitionedCall/model_1/bidirectional/forward_lstm/PartitionedCall/while/LoopCond/_85", "op": "LoopCond", "input": ["StatefulPartitionedCall/model_1/bidirectional/forward_lstm/PartitionedCall/while/cond/_61/while/Less"]}, {"name": "StatefulPartitionedCall/model_1/bidirectional/backward_lstm/PartitionedCall/while/LoopCond/_145", "op": "LoopCond", "input": ["StatefulPartitionedCall/model_1/bidirectional/backward_lstm/PartitionedCall/while/cond/_121/while/Less"]}, {"name": "StatefulPartitionedCall/model_1/bidirectional/forward_lstm/PartitionedCall/while/Func/StatefulPartitionedCall/model_1/bidirectional/forward_lstm/PartitionedCall/input/_19_switch/_91", "op": "Switch", "input": ["StatefulPartitionedCall/model_1/bidirectional/forward_lstm/PartitionedCall/while/merge/_79", "StatefulPartitionedCall/model_1/bidirectional/forward_lstm/PartitionedCall/while/LoopCond/_85"], "attr": {"T": {"type": "DT_FLOAT"}}}, {"name": "StatefulPartitionedCall/model_1/bidirectional/forward_lstm/PartitionedCall/while/StatefulPartitionedCall/model_1/bidirectional/forward_lstm/PartitionedCall/TensorArrayUnstack/TensorListFromTensor_switch/_93", "op": "Switch", "input": ["StatefulPartitionedCall/model_1/bidirectional/forward_lstm/PartitionedCall/while/merge/_81", "StatefulPartitionedCall/model_1/bidirectional/forward_lstm/PartitionedCall/while/LoopCond/_85"], "attr": {"T": {"type": "DT_VARIANT"}}}, {"name": "StatefulPartitionedCall/model_1/bidirectional/forward_lstm/PartitionedCall/while/Func/StatefulPartitionedCall/model_1/bidirectional/forward_lstm/PartitionedCall/input/_20_switch/_94", "op": "Switch", "input": ["StatefulPartitionedCall/model_1/bidirectional/forward_lstm/PartitionedCall/while/merge/_82", "StatefulPartitionedCall/model_1/bidirectional/forward_lstm/PartitionedCall/while/LoopCond/_85"], "attr": {"T": {"type": "DT_FLOAT"}}}, {"name": "StatefulPartitionedCall/model_1/bidirectional/forward_lstm/PartitionedCall/while/Func/StatefulPartitionedCall/model_1/bidirectional/forward_lstm/PartitionedCall/input/_18_switch/_90", "op": "Switch", "input": ["StatefulPartitionedCall/model_1/bidirectional/forward_lstm/PartitionedCall/while/merge/_78", "StatefulPartitionedCall/model_1/bidirectional/forward_lstm/PartitionedCall/while/LoopCond/_85"], "attr": {"T": {"type": "DT_FLOAT"}}}, {"name": "StatefulPartitionedCall/model_1/bidirectional/forward_lstm/PartitionedCall/while/Func/StatefulPartitionedCall/model_1/bidirectional/forward_lstm/PartitionedCall/input/_21_switch/_95", "op": "Switch", "input": ["StatefulPartitionedCall/model_1/bidirectional/forward_lstm/PartitionedCall/while/merge/_83", "StatefulPartitionedCall/model_1/bidirectional/forward_lstm/PartitionedCall/while/LoopCond/_85"], "attr": {"T": {"type": "DT_FLOAT"}}}, {"name": "StatefulPartitionedCall/model_1/bidirectional/forward_lstm/PartitionedCall/while/Func/StatefulPartitionedCall/model_1/bidirectional/forward_lstm/PartitionedCall/input/_22_switch/_96", "op": "Switch", "input": ["StatefulPartitionedCall/model_1/bidirectional/forward_lstm/PartitionedCall/while/merge/_84", "StatefulPartitionedCall/model_1/bidirectional/forward_lstm/PartitionedCall/while/LoopCond/_85"], "attr": {"T": {"type": "DT_FLOAT"}}}, {"name": "StatefulPartitionedCall/model_1/bidirectional/forward_lstm/PartitionedCall/while/StatefulPartitionedCall/model_1/bidirectional/forward_lstm/PartitionedCall/time_switch/_88", "op": "Switch", "input": ["StatefulPartitionedCall/model_1/bidirectional/forward_lstm/PartitionedCall/while/merge/_76", "StatefulPartitionedCall/model_1/bidirectional/forward_lstm/PartitionedCall/while/LoopCond/_85"], "attr": {"T": {"type": "DT_INT32"}}}, {"name": "StatefulPartitionedCall/model_1/bidirectional/forward_lstm/PartitionedCall/while/StatefulPartitionedCall/model_1/bidirectional/forward_lstm/PartitionedCall/while/loop_counter_switch/_86", "op": "Switch", "input": ["StatefulPartitionedCall/model_1/bidirectional/forward_lstm/PartitionedCall/while/merge/_74", "StatefulPartitionedCall/model_1/bidirectional/forward_lstm/PartitionedCall/while/LoopCond/_85"], "attr": {"T": {"type": "DT_INT32"}}}, {"name": "StatefulPartitionedCall/model_1/bidirectional/forward_lstm/PartitionedCall/while/StatefulPartitionedCall/model_1/bidirectional/forward_lstm/PartitionedCall/TensorArrayV2_1_switch/_89", "op": "Switch", "input": ["StatefulPartitionedCall/model_1/bidirectional/forward_lstm/PartitionedCall/while/merge/_77", "StatefulPartitionedCall/model_1/bidirectional/forward_lstm/PartitionedCall/while/LoopCond/_85"], "attr": {"T": {"type": "DT_VARIANT"}}}, {"name": "StatefulPartitionedCall/model_1/bidirectional/forward_lstm/PartitionedCall/while/StatefulPartitionedCall/model_1/bidirectional/forward_lstm/PartitionedCall/strided_slice_switch/_92", "op": "Switch", "input": ["StatefulPartitionedCall/model_1/bidirectional/forward_lstm/PartitionedCall/while/merge/_80", "StatefulPartitionedCall/model_1/bidirectional/forward_lstm/PartitionedCall/while/LoopCond/_85"], "attr": {"T": {"type": "DT_INT32"}}}, {"name": "StatefulPartitionedCall/model_1/bidirectional/backward_lstm/PartitionedCall/while/Func/StatefulPartitionedCall/model_1/bidirectional/backward_lstm/PartitionedCall/input/_30_switch/_151", "op": "Switch", "input": ["StatefulPartitionedCall/model_1/bidirectional/backward_lstm/PartitionedCall/while/merge/_139", "StatefulPartitionedCall/model_1/bidirectional/backward_lstm/PartitionedCall/while/LoopCond/_145"], "attr": {"T": {"type": "DT_FLOAT"}}}, {"name": "StatefulPartitionedCall/model_1/bidirectional/backward_lstm/PartitionedCall/while/StatefulPartitionedCall/model_1/bidirectional/backward_lstm/PartitionedCall/TensorArrayUnstack/TensorListFromTensor_switch/_153", "op": "Switch", "input": ["StatefulPartitionedCall/model_1/bidirectional/backward_lstm/PartitionedCall/while/merge/_141", "StatefulPartitionedCall/model_1/bidirectional/backward_lstm/PartitionedCall/while/LoopCond/_145"], "attr": {"T": {"type": "DT_VARIANT"}}}, {"name": "StatefulPartitionedCall/model_1/bidirectional/backward_lstm/PartitionedCall/while/Func/StatefulPartitionedCall/model_1/bidirectional/backward_lstm/PartitionedCall/input/_31_switch/_154", "op": "Switch", "input": ["StatefulPartitionedCall/model_1/bidirectional/backward_lstm/PartitionedCall/while/merge/_142", "StatefulPartitionedCall/model_1/bidirectional/backward_lstm/PartitionedCall/while/LoopCond/_145"], "attr": {"T": {"type": "DT_FLOAT"}}}, {"name": "StatefulPartitionedCall/model_1/bidirectional/backward_lstm/PartitionedCall/while/Func/StatefulPartitionedCall/model_1/bidirectional/backward_lstm/PartitionedCall/input/_29_switch/_150", "op": "Switch", "input": ["StatefulPartitionedCall/model_1/bidirectional/backward_lstm/PartitionedCall/while/merge/_138", "StatefulPartitionedCall/model_1/bidirectional/backward_lstm/PartitionedCall/while/LoopCond/_145"], "attr": {"T": {"type": "DT_FLOAT"}}}, {"name": "StatefulPartitionedCall/model_1/bidirectional/backward_lstm/PartitionedCall/while/Func/StatefulPartitionedCall/model_1/bidirectional/backward_lstm/PartitionedCall/input/_32_switch/_155", "op": "Switch", "input": ["StatefulPartitionedCall/model_1/bidirectional/backward_lstm/PartitionedCall/while/merge/_143", "StatefulPartitionedCall/model_1/bidirectional/backward_lstm/PartitionedCall/while/LoopCond/_145"], "attr": {"T": {"type": "DT_FLOAT"}}}, {"name": "StatefulPartitionedCall/model_1/bidirectional/backward_lstm/PartitionedCall/while/Func/StatefulPartitionedCall/model_1/bidirectional/backward_lstm/PartitionedCall/input/_33_switch/_156", "op": "Switch", "input": ["StatefulPartitionedCall/model_1/bidirectional/backward_lstm/PartitionedCall/while/merge/_144", "StatefulPartitionedCall/model_1/bidirectional/backward_lstm/PartitionedCall/while/LoopCond/_145"], "attr": {"T": {"type": "DT_FLOAT"}}}, {"name": "StatefulPartitionedCall/model_1/bidirectional/backward_lstm/PartitionedCall/while/StatefulPartitionedCall/model_1/bidirectional/backward_lstm/PartitionedCall/time_switch/_148", "op": "Switch", "input": ["StatefulPartitionedCall/model_1/bidirectional/backward_lstm/PartitionedCall/while/merge/_136", "StatefulPartitionedCall/model_1/bidirectional/backward_lstm/PartitionedCall/while/LoopCond/_145"], "attr": {"T": {"type": "DT_INT32"}}}, {"name": "StatefulPartitionedCall/model_1/bidirectional/backward_lstm/PartitionedCall/while/StatefulPartitionedCall/model_1/bidirectional/backward_lstm/PartitionedCall/while/loop_counter_switch/_146", "op": "Switch", "input": ["StatefulPartitionedCall/model_1/bidirectional/backward_lstm/PartitionedCall/while/merge/_134", "StatefulPartitionedCall/model_1/bidirectional/backward_lstm/PartitionedCall/while/LoopCond/_145"], "attr": {"T": {"type": "DT_INT32"}}}, {"name": "StatefulPartitionedCall/model_1/bidirectional/backward_lstm/PartitionedCall/while/StatefulPartitionedCall/model_1/bidirectional/backward_lstm/PartitionedCall/TensorArrayV2_1_switch/_149", "op": "Switch", "input": ["StatefulPartitionedCall/model_1/bidirectional/backward_lstm/PartitionedCall/while/merge/_137", "StatefulPartitionedCall/model_1/bidirectional/backward_lstm/PartitionedCall/while/LoopCond/_145"], "attr": {"T": {"type": "DT_VARIANT"}}}, {"name": "StatefulPartitionedCall/model_1/bidirectional/backward_lstm/PartitionedCall/while/StatefulPartitionedCall/model_1/bidirectional/backward_lstm/PartitionedCall/strided_slice_switch/_152", "op": "Switch", "input": ["StatefulPartitionedCall/model_1/bidirectional/backward_lstm/PartitionedCall/while/merge/_140", "StatefulPartitionedCall/model_1/bidirectional/backward_lstm/PartitionedCall/while/LoopCond/_145"], "attr": {"T": {"type": "DT_INT32"}}}, {"name": "StatefulPartitionedCall/model_1/bidirectional/forward_lstm/PartitionedCall/while/loop_body_control/_97", "op": "Identity", "input": ["StatefulPartitionedCall/model_1/bidirectional/forward_lstm/PartitionedCall/while/StatefulPartitionedCall/model_1/bidirectional/forward_lstm/PartitionedCall/while/loop_counter_switch/_86:1"], "attr": {"_has_manual_control_dependencies": {"b": true}, "T": {"type": "DT_INT32"}}}, {"name": "StatefulPartitionedCall/model_1/bidirectional/forward_lstm/PartitionedCall/while/exit/_101", "op": "Exit", "input": ["StatefulPartitionedCall/model_1/bidirectional/forward_lstm/PartitionedCall/while/StatefulPartitionedCall/model_1/bidirectional/forward_lstm/PartitionedCall/TensorArrayV2_1_switch/_89"], "attr": {"T": {"type": "DT_VARIANT"}}}, {"name": "StatefulPartitionedCall/model_1/bidirectional/backward_lstm/PartitionedCall/while/loop_body_control/_157", "op": "Identity", "input": ["StatefulPartitionedCall/model_1/bidirectional/backward_lstm/PartitionedCall/while/StatefulPartitionedCall/model_1/bidirectional/backward_lstm/PartitionedCall/while/loop_counter_switch/_146:1"], "attr": {"T": {"type": "DT_INT32"}, "_has_manual_control_dependencies": {"b": true}}}, {"name": "StatefulPartitionedCall/model_1/bidirectional/backward_lstm/PartitionedCall/while/exit/_161", "op": "Exit", "input": ["StatefulPartitionedCall/model_1/bidirectional/backward_lstm/PartitionedCall/while/StatefulPartitionedCall/model_1/bidirectional/backward_lstm/PartitionedCall/TensorArrayV2_1_switch/_149"], "attr": {"T": {"type": "DT_VARIANT"}}}, {"name": "StatefulPartitionedCall/model_1/bidirectional/forward_lstm/PartitionedCall/while/body/_62/while/split/split_dim", "op": "Const", "input": ["^StatefulPartitionedCall/model_1/bidirectional/forward_lstm/PartitionedCall/while/loop_body_control/_97"], "attr": {"dtype": {"type": "DT_INT32"}, "value": {"tensor": {"dtype": "DT_INT32", "tensorShape": {}}}}}, {"name": "StatefulPartitionedCall/model_1/bidirectional/forward_lstm/PartitionedCall/while/next_iteration/_117", "op": "NextIteration", "input": ["StatefulPartitionedCall/model_1/bidirectional/forward_lstm/PartitionedCall/while/StatefulPartitionedCall/model_1/bidirectional/forward_lstm/PartitionedCall/TensorArrayUnstack/TensorListFromTensor_switch/_93:1", "^StatefulPartitionedCall/model_1/bidirectional/forward_lstm/PartitionedCall/while/loop_body_control/_97"], "attr": {"T": {"type": "DT_VARIANT"}}}, {"name": "StatefulPartitionedCall/model_1/bidirectional/forward_lstm/PartitionedCall/while/body/_62/while/TensorArrayV2Read/TensorListGetItem/element_shape", "op": "Const", "input": ["^StatefulPartitionedCall/model_1/bidirectional/forward_lstm/PartitionedCall/while/loop_body_control/_97"], "attr": {"dtype": {"type": "DT_INT32"}, "value": {"tensor": {"dtype": "DT_INT32", "tensorShape": {"dim": [{"size": "2"}]}}}}}, {"name": "StatefulPartitionedCall/model_1/bidirectional/forward_lstm/PartitionedCall/while/next_iteration/_118", "op": "NextIteration", "input": ["StatefulPartitionedCall/model_1/bidirectional/forward_lstm/PartitionedCall/while/Func/StatefulPartitionedCall/model_1/bidirectional/forward_lstm/PartitionedCall/input/_20_switch/_94:1", "^StatefulPartitionedCall/model_1/bidirectional/forward_lstm/PartitionedCall/while/loop_body_control/_97"], "attr": {"T": {"type": "DT_FLOAT"}}}, {"name": "StatefulPartitionedCall/model_1/bidirectional/forward_lstm/PartitionedCall/while/next_iteration/_119", "op": "NextIteration", "input": ["StatefulPartitionedCall/model_1/bidirectional/forward_lstm/PartitionedCall/while/Func/StatefulPartitionedCall/model_1/bidirectional/forward_lstm/PartitionedCall/input/_21_switch/_95:1", "^StatefulPartitionedCall/model_1/bidirectional/forward_lstm/PartitionedCall/while/loop_body_control/_97"], "attr": {"T": {"type": "DT_FLOAT"}}}, {"name": "StatefulPartitionedCall/model_1/bidirectional/forward_lstm/PartitionedCall/while/body/_62/while/MatMul_1", "op": "MatMul", "input": ["StatefulPartitionedCall/model_1/bidirectional/forward_lstm/PartitionedCall/while/Func/StatefulPartitionedCall/model_1/bidirectional/forward_lstm/PartitionedCall/input/_18_switch/_90:1", "StatefulPartitionedCall/model_1/bidirectional/forward_lstm/PartitionedCall/while/Func/StatefulPartitionedCall/model_1/bidirectional/forward_lstm/PartitionedCall/input/_21_switch/_95:1", "^StatefulPartitionedCall/model_1/bidirectional/forward_lstm/PartitionedCall/while/loop_body_control/_97"], "device": "/device:CPU:0", "attr": {"T": {"type": "DT_FLOAT"}, "transpose_b": {"b": false}, "transpose_a": {"b": false}, "_input_shapes": {"list": {"shape": [{"dim": [{"size": "-23"}, {"size": "64"}]}, {"dim": [{"size": "64"}, {"size": "256"}]}]}}}}, {"name": "StatefulPartitionedCall/model_1/bidirectional/forward_lstm/PartitionedCall/while/next_iteration/_120", "op": "NextIteration", "input": ["StatefulPartitionedCall/model_1/bidirectional/forward_lstm/PartitionedCall/while/Func/StatefulPartitionedCall/model_1/bidirectional/forward_lstm/PartitionedCall/input/_22_switch/_96:1", "^StatefulPartitionedCall/model_1/bidirectional/forward_lstm/PartitionedCall/while/loop_body_control/_97"], "attr": {"T": {"type": "DT_FLOAT"}}}, {"name": "Func/StatefulPartitionedCall/model_1/bidirectional/forward_lstm/PartitionedCall/while/body/_62/input/_317", "op": "Identity", "input": ["StatefulPartitionedCall/model_1/bidirectional/forward_lstm/PartitionedCall/while/StatefulPartitionedCall/model_1/bidirectional/forward_lstm/PartitionedCall/time_switch/_88:1", "^StatefulPartitionedCall/model_1/bidirectional/forward_lstm/PartitionedCall/while/loop_body_control/_97"], "attr": {"T": {"type": "DT_INT32"}}}, {"name": "StatefulPartitionedCall/model_1/bidirectional/forward_lstm/PartitionedCall/while/body/_62/while/add_2/y", "op": "Const", "input": ["^StatefulPartitionedCall/model_1/bidirectional/forward_lstm/PartitionedCall/while/loop_body_control/_97"], "attr": {"value": {"tensor": {"dtype": "DT_INT32", "tensorShape": {}}}, "dtype": {"type": "DT_INT32"}}}, {"name": "StatefulPartitionedCall/model_1/bidirectional/forward_lstm/PartitionedCall/while/body/_62/while/add_3/y", "op": "Const", "input": ["^StatefulPartitionedCall/model_1/bidirectional/forward_lstm/PartitionedCall/while/loop_body_control/_97"], "attr": {"value": {"tensor": {"dtype": "DT_INT32", "tensorShape": {}}}, "dtype": {"type": "DT_INT32"}}}, {"name": "StatefulPartitionedCall/model_1/bidirectional/forward_lstm/PartitionedCall/while/next_iteration/_116", "op": "NextIteration", "input": ["StatefulPartitionedCall/model_1/bidirectional/forward_lstm/PartitionedCall/while/StatefulPartitionedCall/model_1/bidirectional/forward_lstm/PartitionedCall/strided_slice_switch/_92:1", "^StatefulPartitionedCall/model_1/bidirectional/forward_lstm/PartitionedCall/while/loop_body_control/_97"], "attr": {"T": {"type": "DT_INT32"}}}, {"name": "StatefulPartitionedCall/model_1/bidirectional/forward_lstm/PartitionedCall/TensorArrayV2Stack/TensorListStack", "op": "TensorListStack", "input": ["StatefulPartitionedCall/model_1/bidirectional/forward_lstm/PartitionedCall/while/exit/_101", "StatefulPartitionedCall/model_1/bidirectional/forward_lstm/PartitionedCall/TensorArrayV2Stack/TensorListStack/element_shape"], "attr": {"num_elements": {"i": "-1"}, "element_dtype": {"type": "DT_FLOAT"}}}, {"name": "StatefulPartitionedCall/model_1/bidirectional/backward_lstm/PartitionedCall/while/body/_122/while/split/split_dim", "op": "Const", "input": ["^StatefulPartitionedCall/model_1/bidirectional/backward_lstm/PartitionedCall/while/loop_body_control/_157"], "attr": {"value": {"tensor": {"dtype": "DT_INT32", "tensorShape": {}}}, "dtype": {"type": "DT_INT32"}}}, {"name": "StatefulPartitionedCall/model_1/bidirectional/backward_lstm/PartitionedCall/while/next_iteration/_177", "op": "NextIteration", "input": ["StatefulPartitionedCall/model_1/bidirectional/backward_lstm/PartitionedCall/while/StatefulPartitionedCall/model_1/bidirectional/backward_lstm/PartitionedCall/TensorArrayUnstack/TensorListFromTensor_switch/_153:1", "^StatefulPartitionedCall/model_1/bidirectional/backward_lstm/PartitionedCall/while/loop_body_control/_157"], "attr": {"T": {"type": "DT_VARIANT"}}}, {"name": "StatefulPartitionedCall/model_1/bidirectional/backward_lstm/PartitionedCall/while/body/_122/while/TensorArrayV2Read/TensorListGetItem/element_shape", "op": "Const", "input": ["^StatefulPartitionedCall/model_1/bidirectional/backward_lstm/PartitionedCall/while/loop_body_control/_157"], "attr": {"value": {"tensor": {"dtype": "DT_INT32", "tensorShape": {"dim": [{"size": "2"}]}}}, "dtype": {"type": "DT_INT32"}}}, {"name": "StatefulPartitionedCall/model_1/bidirectional/backward_lstm/PartitionedCall/while/next_iteration/_178", "op": "NextIteration", "input": ["StatefulPartitionedCall/model_1/bidirectional/backward_lstm/PartitionedCall/while/Func/StatefulPartitionedCall/model_1/bidirectional/backward_lstm/PartitionedCall/input/_31_switch/_154:1", "^StatefulPartitionedCall/model_1/bidirectional/backward_lstm/PartitionedCall/while/loop_body_control/_157"], "attr": {"T": {"type": "DT_FLOAT"}}}, {"name": "StatefulPartitionedCall/model_1/bidirectional/backward_lstm/PartitionedCall/while/next_iteration/_179", "op": "NextIteration", "input": ["StatefulPartitionedCall/model_1/bidirectional/backward_lstm/PartitionedCall/while/Func/StatefulPartitionedCall/model_1/bidirectional/backward_lstm/PartitionedCall/input/_32_switch/_155:1", "^StatefulPartitionedCall/model_1/bidirectional/backward_lstm/PartitionedCall/while/loop_body_control/_157"], "attr": {"T": {"type": "DT_FLOAT"}}}, {"name": "StatefulPartitionedCall/model_1/bidirectional/backward_lstm/PartitionedCall/while/body/_122/while/MatMul_1", "op": "MatMul", "input": ["StatefulPartitionedCall/model_1/bidirectional/backward_lstm/PartitionedCall/while/Func/StatefulPartitionedCall/model_1/bidirectional/backward_lstm/PartitionedCall/input/_29_switch/_150:1", "StatefulPartitionedCall/model_1/bidirectional/backward_lstm/PartitionedCall/while/Func/StatefulPartitionedCall/model_1/bidirectional/backward_lstm/PartitionedCall/input/_32_switch/_155:1", "^StatefulPartitionedCall/model_1/bidirectional/backward_lstm/PartitionedCall/while/loop_body_control/_157"], "device": "/device:CPU:0", "attr": {"T": {"type": "DT_FLOAT"}, "transpose_b": {"b": false}, "transpose_a": {"b": false}, "_input_shapes": {"list": {"shape": [{"dim": [{"size": "-32"}, {"size": "64"}]}, {"dim": [{"size": "64"}, {"size": "256"}]}]}}}}, {"name": "StatefulPartitionedCall/model_1/bidirectional/backward_lstm/PartitionedCall/while/next_iteration/_180", "op": "NextIteration", "input": ["StatefulPartitionedCall/model_1/bidirectional/backward_lstm/PartitionedCall/while/Func/StatefulPartitionedCall/model_1/bidirectional/backward_lstm/PartitionedCall/input/_33_switch/_156:1", "^StatefulPartitionedCall/model_1/bidirectional/backward_lstm/PartitionedCall/while/loop_body_control/_157"], "attr": {"T": {"type": "DT_FLOAT"}}}, {"name": "Func/StatefulPartitionedCall/model_1/bidirectional/backward_lstm/PartitionedCall/while/body/_122/input/_354", "op": "Identity", "input": ["StatefulPartitionedCall/model_1/bidirectional/backward_lstm/PartitionedCall/while/StatefulPartitionedCall/model_1/bidirectional/backward_lstm/PartitionedCall/time_switch/_148:1", "^StatefulPartitionedCall/model_1/bidirectional/backward_lstm/PartitionedCall/while/loop_body_control/_157"], "attr": {"T": {"type": "DT_INT32"}}}, {"name": "StatefulPartitionedCall/model_1/bidirectional/backward_lstm/PartitionedCall/while/body/_122/while/add_2/y", "op": "Const", "input": ["^StatefulPartitionedCall/model_1/bidirectional/backward_lstm/PartitionedCall/while/loop_body_control/_157"], "attr": {"value": {"tensor": {"dtype": "DT_INT32", "tensorShape": {}}}, "dtype": {"type": "DT_INT32"}}}, {"name": "StatefulPartitionedCall/model_1/bidirectional/backward_lstm/PartitionedCall/while/body/_122/while/add_3/y", "op": "Const", "input": ["^StatefulPartitionedCall/model_1/bidirectional/backward_lstm/PartitionedCall/while/loop_body_control/_157"], "attr": {"dtype": {"type": "DT_INT32"}, "value": {"tensor": {"dtype": "DT_INT32", "tensorShape": {}}}}}, {"name": "StatefulPartitionedCall/model_1/bidirectional/backward_lstm/PartitionedCall/while/next_iteration/_176", "op": "NextIteration", "input": ["StatefulPartitionedCall/model_1/bidirectional/backward_lstm/PartitionedCall/while/StatefulPartitionedCall/model_1/bidirectional/backward_lstm/PartitionedCall/strided_slice_switch/_152:1", "^StatefulPartitionedCall/model_1/bidirectional/backward_lstm/PartitionedCall/while/loop_body_control/_157"], "attr": {"T": {"type": "DT_INT32"}}}, {"name": "StatefulPartitionedCall/model_1/bidirectional/backward_lstm/PartitionedCall/TensorArrayV2Stack/TensorListStack", "op": "TensorListStack", "input": ["StatefulPartitionedCall/model_1/bidirectional/backward_lstm/PartitionedCall/while/exit/_161", "StatefulPartitionedCall/model_1/bidirectional/backward_lstm/PartitionedCall/TensorArrayV2Stack/TensorListStack/element_shape"], "attr": {"num_elements": {"i": "-1"}, "element_dtype": {"type": "DT_FLOAT"}}}, {"name": "StatefulPartitionedCall/model_1/bidirectional/forward_lstm/PartitionedCall/while/body/_62/while/TensorArrayV2Read/TensorListGetItem", "op": "TensorListGetItem", "input": ["StatefulPartitionedCall/model_1/bidirectional/forward_lstm/PartitionedCall/while/StatefulPartitionedCall/model_1/bidirectional/forward_lstm/PartitionedCall/TensorArrayUnstack/TensorListFromTensor_switch/_93:1", "Func/StatefulPartitionedCall/model_1/bidirectional/forward_lstm/PartitionedCall/while/body/_62/input/_317", "StatefulPartitionedCall/model_1/bidirectional/forward_lstm/PartitionedCall/while/body/_62/while/TensorArrayV2Read/TensorListGetItem/element_shape"], "attr": {"element_dtype": {"type": "DT_FLOAT"}}}, {"name": "StatefulPartitionedCall/model_1/bidirectional/forward_lstm/PartitionedCall/while/body/_62/while/add_2", "op": "AddV2", "input": ["Func/StatefulPartitionedCall/model_1/bidirectional/forward_lstm/PartitionedCall/while/body/_62/input/_317", "StatefulPartitionedCall/model_1/bidirectional/forward_lstm/PartitionedCall/while/body/_62/while/add_2/y"], "attr": {"T": {"type": "DT_INT32"}}}, {"name": "StatefulPartitionedCall/model_1/bidirectional/forward_lstm/PartitionedCall/while/body/_62/while/add_3", "op": "AddV2", "input": ["StatefulPartitionedCall/model_1/bidirectional/forward_lstm/PartitionedCall/while/StatefulPartitionedCall/model_1/bidirectional/forward_lstm/PartitionedCall/while/loop_counter_switch/_86:1", "StatefulPartitionedCall/model_1/bidirectional/forward_lstm/PartitionedCall/while/body/_62/while/add_3/y"], "attr": {"T": {"type": "DT_INT32"}}}, {"name": "StatefulPartitionedCall/model_1/bidirectional/forward_lstm/PartitionedCall/transpose_1", "op": "Transpose", "input": ["StatefulPartitionedCall/model_1/bidirectional/forward_lstm/PartitionedCall/TensorArrayV2Stack/TensorListStack", "StatefulPartitionedCall/model_1/bidirectional/forward_lstm/PartitionedCall/transpose_1/perm"], "attr": {"T": {"type": "DT_FLOAT"}, "_input_shapes": {"list": {"shape": [{"dim": [{"size": "-10"}, {"size": "-8"}, {"size": "64"}]}, {"dim": [{"size": "3"}]}]}}, "Tperm": {"type": "DT_INT32"}}}, {"name": "StatefulPartitionedCall/model_1/bidirectional/backward_lstm/PartitionedCall/while/body/_122/while/TensorArrayV2Read/TensorListGetItem", "op": "TensorListGetItem", "input": ["StatefulPartitionedCall/model_1/bidirectional/backward_lstm/PartitionedCall/while/StatefulPartitionedCall/model_1/bidirectional/backward_lstm/PartitionedCall/TensorArrayUnstack/TensorListFromTensor_switch/_153:1", "Func/StatefulPartitionedCall/model_1/bidirectional/backward_lstm/PartitionedCall/while/body/_122/input/_354", "StatefulPartitionedCall/model_1/bidirectional/backward_lstm/PartitionedCall/while/body/_122/while/TensorArrayV2Read/TensorListGetItem/element_shape"], "attr": {"element_dtype": {"type": "DT_FLOAT"}}}, {"name": "StatefulPartitionedCall/model_1/bidirectional/backward_lstm/PartitionedCall/while/body/_122/while/add_2", "op": "AddV2", "input": ["Func/StatefulPartitionedCall/model_1/bidirectional/backward_lstm/PartitionedCall/while/body/_122/input/_354", "StatefulPartitionedCall/model_1/bidirectional/backward_lstm/PartitionedCall/while/body/_122/while/add_2/y"], "attr": {"T": {"type": "DT_INT32"}}}, {"name": "StatefulPartitionedCall/model_1/bidirectional/backward_lstm/PartitionedCall/while/body/_122/while/add_3", "op": "AddV2", "input": ["StatefulPartitionedCall/model_1/bidirectional/backward_lstm/PartitionedCall/while/StatefulPartitionedCall/model_1/bidirectional/backward_lstm/PartitionedCall/while/loop_counter_switch/_146:1", "StatefulPartitionedCall/model_1/bidirectional/backward_lstm/PartitionedCall/while/body/_122/while/add_3/y"], "attr": {"T": {"type": "DT_INT32"}}}, {"name": "StatefulPartitionedCall/model_1/bidirectional/backward_lstm/PartitionedCall/transpose_1", "op": "Transpose", "input": ["StatefulPartitionedCall/model_1/bidirectional/backward_lstm/PartitionedCall/TensorArrayV2Stack/TensorListStack", "StatefulPartitionedCall/model_1/bidirectional/backward_lstm/PartitionedCall/transpose_1/perm"], "attr": {"_input_shapes": {"list": {"shape": [{"dim": [{"size": "-10"}, {"size": "-8"}, {"size": "64"}]}, {"dim": [{"size": "3"}]}]}}, "Tperm": {"type": "DT_INT32"}, "T": {"type": "DT_FLOAT"}}}, {"name": "StatefulPartitionedCall/model_1/bidirectional/forward_lstm/PartitionedCall/while/body/_62/while/add", "op": "_FusedMatMul", "input": ["StatefulPartitionedCall/model_1/bidirectional/forward_lstm/PartitionedCall/while/body/_62/while/TensorArrayV2Read/TensorListGetItem", "StatefulPartitionedCall/model_1/bidirectional/forward_lstm/PartitionedCall/while/Func/StatefulPartitionedCall/model_1/bidirectional/forward_lstm/PartitionedCall/input/_20_switch/_94:1", "StatefulPartitionedCall/model_1/bidirectional/forward_lstm/PartitionedCall/while/body/_62/while/MatMul_1"], "device": "/device:CPU:0", "attr": {"transpose_b": {"b": false}, "transpose_a": {"b": false}, "T": {"type": "DT_FLOAT"}, "fused_ops": {"list": {"s": ["Qmlhc0FkZA=="]}}, "_input_shapes": {"list": {"shape": [{"dim": [{"size": "-25"}, {"size": "256"}]}, {"dim": [{"size": "256"}, {"size": "256"}]}]}}, "leakyrelu_alpha": {"f": 0.2}, "epsilon": {"f": 0.0}, "num_args": {"i": "1"}}}, {"name": "StatefulPartitionedCall/model_1/bidirectional/forward_lstm/PartitionedCall/while/next_iteration/_112", "op": "NextIteration", "input": ["StatefulPartitionedCall/model_1/bidirectional/forward_lstm/PartitionedCall/while/body/_62/while/add_2", "^StatefulPartitionedCall/model_1/bidirectional/forward_lstm/PartitionedCall/while/loop_body_control/_97"], "attr": {"T": {"type": "DT_INT32"}}}, {"name": "StatefulPartitionedCall/model_1/bidirectional/forward_lstm/PartitionedCall/while/next_iteration/_110", "op": "NextIteration", "input": ["StatefulPartitionedCall/model_1/bidirectional/forward_lstm/PartitionedCall/while/body/_62/while/add_3", "^StatefulPartitionedCall/model_1/bidirectional/forward_lstm/PartitionedCall/while/loop_body_control/_97"], "attr": {"T": {"type": "DT_INT32"}}}, {"name": "StatefulPartitionedCall/model_1/bidirectional/backward_lstm/PartitionedCall/while/body/_122/while/add", "op": "_FusedMatMul", "input": ["StatefulPartitionedCall/model_1/bidirectional/backward_lstm/PartitionedCall/while/body/_122/while/TensorArrayV2Read/TensorListGetItem", "StatefulPartitionedCall/model_1/bidirectional/backward_lstm/PartitionedCall/while/Func/StatefulPartitionedCall/model_1/bidirectional/backward_lstm/PartitionedCall/input/_31_switch/_154:1", "StatefulPartitionedCall/model_1/bidirectional/backward_lstm/PartitionedCall/while/body/_122/while/MatMul_1"], "device": "/device:CPU:0", "attr": {"transpose_a": {"b": false}, "epsilon": {"f": 0.0}, "T": {"type": "DT_FLOAT"}, "leakyrelu_alpha": {"f": 0.2}, "fused_ops": {"list": {"s": ["Qmlhc0FkZA=="]}}, "num_args": {"i": "1"}, "_input_shapes": {"list": {"shape": [{"dim": [{"size": "-31"}, {"size": "256"}]}, {"dim": [{"size": "256"}, {"size": "256"}]}]}}, "transpose_b": {"b": false}}}, {"name": "StatefulPartitionedCall/model_1/bidirectional/backward_lstm/PartitionedCall/while/next_iteration/_172", "op": "NextIteration", "input": ["StatefulPartitionedCall/model_1/bidirectional/backward_lstm/PartitionedCall/while/body/_122/while/add_2", "^StatefulPartitionedCall/model_1/bidirectional/backward_lstm/PartitionedCall/while/loop_body_control/_157"], "attr": {"T": {"type": "DT_INT32"}}}, {"name": "StatefulPartitionedCall/model_1/bidirectional/backward_lstm/PartitionedCall/while/next_iteration/_170", "op": "NextIteration", "input": ["StatefulPartitionedCall/model_1/bidirectional/backward_lstm/PartitionedCall/while/body/_122/while/add_3", "^StatefulPartitionedCall/model_1/bidirectional/backward_lstm/PartitionedCall/while/loop_body_control/_157"], "attr": {"T": {"type": "DT_INT32"}}}, {"name": "StatefulPartitionedCall/model_1/bidirectional/ReverseV2", "op": "ReverseV2", "input": ["StatefulPartitionedCall/model_1/bidirectional/backward_lstm/PartitionedCall/transpose_1", "StatefulPartitionedCall/model_1/bidirectional/ReverseV2/axis"], "attr": {"T": {"type": "DT_FLOAT"}, "Tidx": {"type": "DT_INT32"}}}, {"name": "StatefulPartitionedCall/model_1/bidirectional/forward_lstm/PartitionedCall/while/body/_62/while/BiasAdd", "op": "BiasAdd", "input": ["StatefulPartitionedCall/model_1/bidirectional/forward_lstm/PartitionedCall/while/body/_62/while/add", "StatefulPartitionedCall/model_1/bidirectional/forward_lstm/PartitionedCall/while/Func/StatefulPartitionedCall/model_1/bidirectional/forward_lstm/PartitionedCall/input/_22_switch/_96:1"], "attr": {"T": {"type": "DT_FLOAT"}, "data_format": {"s": "TkhXQw=="}, "_input_shapes": {"list": {"shape": [{"dim": [{"size": "-24"}, {"size": "256"}]}, {"dim": [{"size": "256"}]}]}}}}, {"name": "StatefulPartitionedCall/model_1/bidirectional/backward_lstm/PartitionedCall/while/body/_122/while/BiasAdd", "op": "BiasAdd", "input": ["StatefulPartitionedCall/model_1/bidirectional/backward_lstm/PartitionedCall/while/body/_122/while/add", "StatefulPartitionedCall/model_1/bidirectional/backward_lstm/PartitionedCall/while/Func/StatefulPartitionedCall/model_1/bidirectional/backward_lstm/PartitionedCall/input/_33_switch/_156:1"], "attr": {"data_format": {"s": "TkhXQw=="}, "T": {"type": "DT_FLOAT"}, "_input_shapes": {"list": {"shape": [{"dim": [{"size": "-34"}, {"size": "256"}]}, {"dim": [{"size": "256"}]}]}}}}, {"name": "StatefulPartitionedCall/model_1/bidirectional/concat", "op": "ConcatV2", "input": ["StatefulPartitionedCall/model_1/bidirectional/forward_lstm/PartitionedCall/transpose_1", "StatefulPartitionedCall/model_1/bidirectional/ReverseV2", "StatefulPartitionedCall/model_1/bidirectional/concat/axis"], "attr": {"Tidx": {"type": "DT_INT32"}, "N": {"i": "2"}, "T": {"type": "DT_FLOAT"}}}, {"name": "StatefulPartitionedCall/model_1/bidirectional/forward_lstm/PartitionedCall/while/body/_62/while/split", "op": "Split", "input": ["StatefulPartitionedCall/model_1/bidirectional/forward_lstm/PartitionedCall/while/body/_62/while/split/split_dim", "StatefulPartitionedCall/model_1/bidirectional/forward_lstm/PartitionedCall/while/body/_62/while/BiasAdd"], "attr": {"T": {"type": "DT_FLOAT"}, "num_split": {"i": "4"}}}, {"name": "StatefulPartitionedCall/model_1/bidirectional/backward_lstm/PartitionedCall/while/body/_122/while/split", "op": "Split", "input": ["StatefulPartitionedCall/model_1/bidirectional/backward_lstm/PartitionedCall/while/body/_122/while/split/split_dim", "StatefulPartitionedCall/model_1/bidirectional/backward_lstm/PartitionedCall/while/body/_122/while/BiasAdd"], "attr": {"num_split": {"i": "4"}, "T": {"type": "DT_FLOAT"}}}, {"name": "StatefulPartitionedCall/model_1/bidirectional_1/forward_lstm_1/Shape", "op": "Shape", "input": ["StatefulPartitionedCall/model_1/bidirectional/concat"], "attr": {"out_type": {"type": "DT_INT32"}, "T": {"type": "DT_FLOAT"}}, "experimentalType": {"typeId": "TFT_PRODUCT", "args": [{"typeId": "TFT_SHAPE_TENSOR", "args": [{"typeId": "TFT_INT32"}]}]}}, {"name": "StatefulPartitionedCall/model_1/bidirectional_1/forward_lstm_1/PartitionedCall/transpose", "op": "Transpose", "input": ["StatefulPartitionedCall/model_1/bidirectional/concat", "StatefulPartitionedCall/model_1/bidirectional_1/forward_lstm_1/PartitionedCall/transpose/perm"], "attr": {"Tperm": {"type": "DT_INT32"}, "T": {"type": "DT_FLOAT"}, "_input_shapes": {"list": {"shape": [{"dim": [{"size": "-8"}, {"size": "-10"}, {"size": "128"}]}, {"dim": [{"size": "3"}]}]}}}}, {"name": "StatefulPartitionedCall/model_1/bidirectional_1/backward_lstm_1/Shape", "op": "Shape", "input": ["StatefulPartitionedCall/model_1/bidirectional/concat"], "attr": {"T": {"type": "DT_FLOAT"}, "out_type": {"type": "DT_INT32"}}, "experimentalType": {"typeId": "TFT_PRODUCT", "args": [{"typeId": "TFT_SHAPE_TENSOR", "args": [{"typeId": "TFT_INT32"}]}]}}, {"name": "StatefulPartitionedCall/model_1/bidirectional_1/backward_lstm_1/PartitionedCall/transpose", "op": "Transpose", "input": ["StatefulPartitionedCall/model_1/bidirectional/concat", "StatefulPartitionedCall/model_1/bidirectional_1/backward_lstm_1/PartitionedCall/transpose/perm"], "attr": {"T": {"type": "DT_FLOAT"}, "_input_shapes": {"list": {"shape": [{"dim": [{"size": "-8"}, {"size": "-10"}, {"size": "128"}]}, {"dim": [{"size": "3"}]}]}}, "Tperm": {"type": "DT_INT32"}}}, {"name": "StatefulPartitionedCall/model_1/bidirectional/forward_lstm/PartitionedCall/while/body/_62/while/Sigmoid", "op": "Sigmoid", "input": ["StatefulPartitionedCall/model_1/bidirectional/forward_lstm/PartitionedCall/while/body/_62/while/split"], "attr": {"_input_shapes": {"list": {"shape": [{"dim": [{"size": "-24"}, {"size": "64"}]}]}}, "T": {"type": "DT_FLOAT"}}}, {"name": "StatefulPartitionedCall/model_1/bidirectional/forward_lstm/PartitionedCall/while/body/_62/while/Sigmoid_1", "op": "Sigmoid", "input": ["StatefulPartitionedCall/model_1/bidirectional/forward_lstm/PartitionedCall/while/body/_62/while/split:1"], "attr": {"T": {"type": "DT_FLOAT"}, "_input_shapes": {"list": {"shape": [{"dim": [{"size": "-24"}, {"size": "64"}]}]}}}}, {"name": "StatefulPartitionedCall/model_1/bidirectional/forward_lstm/PartitionedCall/while/body/_62/while/Tanh", "op": "Tanh", "input": ["StatefulPartitionedCall/model_1/bidirectional/forward_lstm/PartitionedCall/while/body/_62/while/split:2"], "attr": {"T": {"type": "DT_FLOAT"}}}, {"name": "StatefulPartitionedCall/model_1/bidirectional/forward_lstm/PartitionedCall/while/body/_62/while/Sigmoid_2", "op": "Sigmoid", "input": ["StatefulPartitionedCall/model_1/bidirectional/forward_lstm/PartitionedCall/while/body/_62/while/split:3"], "attr": {"T": {"type": "DT_FLOAT"}, "_input_shapes": {"list": {"shape": [{"dim": [{"size": "-24"}, {"size": "64"}]}]}}}}, {"name": "StatefulPartitionedCall/model_1/bidirectional/backward_lstm/PartitionedCall/while/body/_122/while/Sigmoid", "op": "Sigmoid", "input": ["StatefulPartitionedCall/model_1/bidirectional/backward_lstm/PartitionedCall/while/body/_122/while/split"], "attr": {"_input_shapes": {"list": {"shape": [{"dim": [{"size": "-34"}, {"size": "64"}]}]}}, "T": {"type": "DT_FLOAT"}}}, {"name": "StatefulPartitionedCall/model_1/bidirectional/backward_lstm/PartitionedCall/while/body/_122/while/Sigmoid_1", "op": "Sigmoid", "input": ["StatefulPartitionedCall/model_1/bidirectional/backward_lstm/PartitionedCall/while/body/_122/while/split:1"], "attr": {"_input_shapes": {"list": {"shape": [{"dim": [{"size": "-34"}, {"size": "64"}]}]}}, "T": {"type": "DT_FLOAT"}}}, {"name": "StatefulPartitionedCall/model_1/bidirectional/backward_lstm/PartitionedCall/while/body/_122/while/Tanh", "op": "Tanh", "input": ["StatefulPartitionedCall/model_1/bidirectional/backward_lstm/PartitionedCall/while/body/_122/while/split:2"], "attr": {"T": {"type": "DT_FLOAT"}}}, {"name": "StatefulPartitionedCall/model_1/bidirectional/backward_lstm/PartitionedCall/while/body/_122/while/Sigmoid_2", "op": "Sigmoid", "input": ["StatefulPartitionedCall/model_1/bidirectional/backward_lstm/PartitionedCall/while/body/_122/while/split:3"], "attr": {"T": {"type": "DT_FLOAT"}, "_input_shapes": {"list": {"shape": [{"dim": [{"size": "-34"}, {"size": "64"}]}]}}}}, {"name": "StatefulPartitionedCall/model_1/bidirectional_1/forward_lstm_1/strided_slice", "op": "StridedSlice", "input": ["StatefulPartitionedCall/model_1/bidirectional_1/forward_lstm_1/Shape", "StatefulPartitionedCall/model_1/bidirectional_1/forward_lstm_1/strided_slice/stack", "StatefulPartitionedCall/model_1/bidirectional_1/forward_lstm_1/strided_slice/stack_1", "StatefulPartitionedCall/model_1/bidirectional_1/forward_lstm_1/strided_slice/stack_2"], "attr": {"ellipsis_mask": {"i": "0"}, "Index": {"type": "DT_INT32"}, "T": {"type": "DT_INT32"}, "shrink_axis_mask": {"i": "1"}, "end_mask": {"i": "0"}, "begin_mask": {"i": "0"}, "new_axis_mask": {"i": "0"}}}, {"name": "StatefulPartitionedCall/model_1/bidirectional_1/forward_lstm_1/PartitionedCall/TensorArrayUnstack/TensorListFromTensor", "op": "TensorListFromTensor", "input": ["StatefulPartitionedCall/model_1/bidirectional_1/forward_lstm_1/PartitionedCall/transpose", "StatefulPartitionedCall/model_1/bidirectional_1/forward_lstm_1/PartitionedCall/TensorArrayUnstack/TensorListFromTensor/element_shape"], "attr": {"element_dtype": {"type": "DT_FLOAT"}, "shape_type": {"type": "DT_INT32"}}, "experimentalType": {"typeId": "TFT_PRODUCT", "args": [{"typeId": "TFT_ARRAY", "args": [{"typeId": "TFT_TENSOR", "args": [{"typeId": "TFT_FLOAT"}]}]}]}}, {"name": "StatefulPartitionedCall/model_1/bidirectional_1/forward_lstm_1/PartitionedCall/Shape", "op": "Shape", "input": ["StatefulPartitionedCall/model_1/bidirectional_1/forward_lstm_1/PartitionedCall/transpose"], "attr": {"out_type": {"type": "DT_INT32"}, "T": {"type": "DT_FLOAT"}}, "experimentalType": {"typeId": "TFT_PRODUCT", "args": [{"typeId": "TFT_SHAPE_TENSOR", "args": [{"typeId": "TFT_INT32"}]}]}}, {"name": "StatefulPartitionedCall/model_1/bidirectional_1/backward_lstm_1/strided_slice", "op": "StridedSlice", "input": ["StatefulPartitionedCall/model_1/bidirectional_1/backward_lstm_1/Shape", "StatefulPartitionedCall/model_1/bidirectional_1/backward_lstm_1/strided_slice/stack", "StatefulPartitionedCall/model_1/bidirectional_1/backward_lstm_1/strided_slice/stack_1", "StatefulPartitionedCall/model_1/bidirectional_1/backward_lstm_1/strided_slice/stack_2"], "attr": {"new_axis_mask": {"i": "0"}, "ellipsis_mask": {"i": "0"}, "end_mask": {"i": "0"}, "begin_mask": {"i": "0"}, "T": {"type": "DT_INT32"}, "shrink_axis_mask": {"i": "1"}, "Index": {"type": "DT_INT32"}}}, {"name": "StatefulPartitionedCall/model_1/bidirectional_1/backward_lstm_1/PartitionedCall/ReverseV2", "op": "ReverseV2", "input": ["StatefulPartitionedCall/model_1/bidirectional_1/backward_lstm_1/PartitionedCall/transpose", "StatefulPartitionedCall/model_1/bidirectional_1/backward_lstm_1/PartitionedCall/ReverseV2/axis"], "attr": {"T": {"type": "DT_FLOAT"}, "Tidx": {"type": "DT_INT32"}}}, {"name": "StatefulPartitionedCall/model_1/bidirectional_1/backward_lstm_1/PartitionedCall/Shape", "op": "Shape", "input": ["StatefulPartitionedCall/model_1/bidirectional_1/backward_lstm_1/PartitionedCall/transpose"], "attr": {"T": {"type": "DT_FLOAT"}, "out_type": {"type": "DT_INT32"}}, "experimentalType": {"typeId": "TFT_PRODUCT", "args": [{"typeId": "TFT_SHAPE_TENSOR", "args": [{"typeId": "TFT_INT32"}]}]}}, {"name": "StatefulPartitionedCall/model_1/bidirectional/forward_lstm/PartitionedCall/while/body/_62/while/mul", "op": "Mul", "input": ["StatefulPartitionedCall/model_1/bidirectional/forward_lstm/PartitionedCall/while/body/_62/while/Sigmoid_1", "StatefulPartitionedCall/model_1/bidirectional/forward_lstm/PartitionedCall/while/Func/StatefulPartitionedCall/model_1/bidirectional/forward_lstm/PartitionedCall/input/_19_switch/_91:1"], "attr": {"T": {"type": "DT_FLOAT"}}}, {"name": "StatefulPartitionedCall/model_1/bidirectional/forward_lstm/PartitionedCall/while/body/_62/while/mul_1", "op": "Mul", "input": ["StatefulPartitionedCall/model_1/bidirectional/forward_lstm/PartitionedCall/while/body/_62/while/Sigmoid", "StatefulPartitionedCall/model_1/bidirectional/forward_lstm/PartitionedCall/while/body/_62/while/Tanh"], "attr": {"T": {"type": "DT_FLOAT"}}}, {"name": "StatefulPartitionedCall/model_1/bidirectional/backward_lstm/PartitionedCall/while/body/_122/while/mul", "op": "Mul", "input": ["StatefulPartitionedCall/model_1/bidirectional/backward_lstm/PartitionedCall/while/body/_122/while/Sigmoid_1", "StatefulPartitionedCall/model_1/bidirectional/backward_lstm/PartitionedCall/while/Func/StatefulPartitionedCall/model_1/bidirectional/backward_lstm/PartitionedCall/input/_30_switch/_151:1"], "attr": {"T": {"type": "DT_FLOAT"}}}, {"name": "StatefulPartitionedCall/model_1/bidirectional/backward_lstm/PartitionedCall/while/body/_122/while/mul_1", "op": "Mul", "input": ["StatefulPartitionedCall/model_1/bidirectional/backward_lstm/PartitionedCall/while/body/_122/while/Sigmoid", "StatefulPartitionedCall/model_1/bidirectional/backward_lstm/PartitionedCall/while/body/_122/while/Tanh"], "attr": {"T": {"type": "DT_FLOAT"}}}, {"name": "StatefulPartitionedCall/model_1/bidirectional_1/forward_lstm_1/zeros_1/packed", "op": "Pack", "input": ["StatefulPartitionedCall/model_1/bidirectional_1/forward_lstm_1/strided_slice", "StatefulPartitionedCall/model_1/bidirectional_1/forward_lstm_1/zeros_1/packed/1"], "attr": {"axis": {"i": "0"}, "N": {"i": "2"}, "T": {"type": "DT_INT32"}}}, {"name": "StatefulPartitionedCall/model_1/bidirectional_1/forward_lstm_1/zeros/packed", "op": "Pack", "input": ["StatefulPartitionedCall/model_1/bidirectional_1/forward_lstm_1/strided_slice", "StatefulPartitionedCall/model_1/bidirectional_1/forward_lstm_1/zeros/packed/1"], "attr": {"N": {"i": "2"}, "T": {"type": "DT_INT32"}, "axis": {"i": "0"}}}, {"name": "StatefulPartitionedCall/model_1/bidirectional_1/forward_lstm_1/PartitionedCall/while/enter/_190", "op": "Enter", "input": ["StatefulPartitionedCall/model_1/bidirectional_1/forward_lstm_1/PartitionedCall/TensorArrayUnstack/TensorListFromTensor"], "attr": {"parallel_iterations": {"i": "32"}, "frame_name": {"s": "U3RhdGVmdWxQYXJ0aXRpb25lZENhbGwvbW9kZWxfMS9iaWRpcmVjdGlvbmFsXzEvZm9yd2FyZF9sc3RtXzEvUGFydGl0aW9uZWRDYWxsL3doaWxl"}, "is_constant": {"b": false}, "T": {"type": "DT_VARIANT"}}}, {"name": "StatefulPartitionedCall/model_1/bidirectional_1/forward_lstm_1/PartitionedCall/strided_slice", "op": "StridedSlice", "input": ["StatefulPartitionedCall/model_1/bidirectional_1/forward_lstm_1/PartitionedCall/Shape", "StatefulPartitionedCall/model_1/bidirectional_1/forward_lstm_1/PartitionedCall/strided_slice/stack", "StatefulPartitionedCall/model_1/bidirectional_1/forward_lstm_1/PartitionedCall/strided_slice/stack_1", "StatefulPartitionedCall/model_1/bidirectional_1/forward_lstm_1/PartitionedCall/strided_slice/stack_2"], "attr": {"begin_mask": {"i": "0"}, "Index": {"type": "DT_INT32"}, "ellipsis_mask": {"i": "0"}, "new_axis_mask": {"i": "0"}, "T": {"type": "DT_INT32"}, "shrink_axis_mask": {"i": "1"}, "end_mask": {"i": "0"}}}, {"name": "StatefulPartitionedCall/model_1/bidirectional_1/backward_lstm_1/zeros_1/packed", "op": "Pack", "input": ["StatefulPartitionedCall/model_1/bidirectional_1/backward_lstm_1/strided_slice", "StatefulPartitionedCall/model_1/bidirectional_1/backward_lstm_1/zeros_1/packed/1"], "attr": {"T": {"type": "DT_INT32"}, "axis": {"i": "0"}, "N": {"i": "2"}}}, {"name": "StatefulPartitionedCall/model_1/bidirectional_1/backward_lstm_1/zeros/packed", "op": "Pack", "input": ["StatefulPartitionedCall/model_1/bidirectional_1/backward_lstm_1/strided_slice", "StatefulPartitionedCall/model_1/bidirectional_1/backward_lstm_1/zeros/packed/1"], "attr": {"N": {"i": "2"}, "T": {"type": "DT_INT32"}, "axis": {"i": "0"}}}, {"name": "StatefulPartitionedCall/model_1/bidirectional_1/backward_lstm_1/PartitionedCall/TensorArrayUnstack/TensorListFromTensor", "op": "TensorListFromTensor", "input": ["StatefulPartitionedCall/model_1/bidirectional_1/backward_lstm_1/PartitionedCall/ReverseV2", "StatefulPartitionedCall/model_1/bidirectional_1/backward_lstm_1/PartitionedCall/TensorArrayUnstack/TensorListFromTensor/element_shape"], "attr": {"shape_type": {"type": "DT_INT32"}, "element_dtype": {"type": "DT_FLOAT"}}, "experimentalType": {"typeId": "TFT_PRODUCT", "args": [{"typeId": "TFT_ARRAY", "args": [{"typeId": "TFT_TENSOR", "args": [{"typeId": "TFT_FLOAT"}]}]}]}}, {"name": "StatefulPartitionedCall/model_1/bidirectional_1/backward_lstm_1/PartitionedCall/strided_slice", "op": "StridedSlice", "input": ["StatefulPartitionedCall/model_1/bidirectional_1/backward_lstm_1/PartitionedCall/Shape", "StatefulPartitionedCall/model_1/bidirectional_1/backward_lstm_1/PartitionedCall/strided_slice/stack", "StatefulPartitionedCall/model_1/bidirectional_1/backward_lstm_1/PartitionedCall/strided_slice/stack_1", "StatefulPartitionedCall/model_1/bidirectional_1/backward_lstm_1/PartitionedCall/strided_slice/stack_2"], "attr": {"end_mask": {"i": "0"}, "Index": {"type": "DT_INT32"}, "begin_mask": {"i": "0"}, "shrink_axis_mask": {"i": "1"}, "ellipsis_mask": {"i": "0"}, "T": {"type": "DT_INT32"}, "new_axis_mask": {"i": "0"}}}, {"name": "StatefulPartitionedCall/model_1/bidirectional/forward_lstm/PartitionedCall/while/body/_62/while/add_1", "op": "AddV2", "input": ["StatefulPartitionedCall/model_1/bidirectional/forward_lstm/PartitionedCall/while/body/_62/while/mul", "StatefulPartitionedCall/model_1/bidirectional/forward_lstm/PartitionedCall/while/body/_62/while/mul_1"], "attr": {"T": {"type": "DT_FLOAT"}}}, {"name": "StatefulPartitionedCall/model_1/bidirectional/backward_lstm/PartitionedCall/while/body/_122/while/add_1", "op": "AddV2", "input": ["StatefulPartitionedCall/model_1/bidirectional/backward_lstm/PartitionedCall/while/body/_122/while/mul", "StatefulPartitionedCall/model_1/bidirectional/backward_lstm/PartitionedCall/while/body/_122/while/mul_1"], "attr": {"T": {"type": "DT_FLOAT"}}}, {"name": "StatefulPartitionedCall/model_1/bidirectional_1/forward_lstm_1/zeros_1", "op": "Fill", "input": ["StatefulPartitionedCall/model_1/bidirectional_1/forward_lstm_1/zeros_1/packed", "StatefulPartitionedCall/model_1/bidirectional_1/forward_lstm_1/zeros_1/Const"], "attr": {"index_type": {"type": "DT_INT32"}, "T": {"type": "DT_FLOAT"}}}, {"name": "StatefulPartitionedCall/model_1/bidirectional_1/forward_lstm_1/zeros", "op": "Fill", "input": ["StatefulPartitionedCall/model_1/bidirectional_1/forward_lstm_1/zeros/packed", "StatefulPartitionedCall/model_1/bidirectional_1/forward_lstm_1/zeros/Const"], "attr": {"T": {"type": "DT_FLOAT"}, "index_type": {"type": "DT_INT32"}}}, {"name": "StatefulPartitionedCall/model_1/bidirectional_1/forward_lstm_1/PartitionedCall/while/merge/_201", "op": "Merge", "input": ["StatefulPartitionedCall/model_1/bidirectional_1/forward_lstm_1/PartitionedCall/while/enter/_190", "StatefulPartitionedCall/model_1/bidirectional_1/forward_lstm_1/PartitionedCall/while/next_iteration/_237"], "attr": {"T": {"type": "DT_VARIANT"}, "N": {"i": "2"}}}, {"name": "StatefulPartitionedCall/model_1/bidirectional_1/forward_lstm_1/PartitionedCall/while/enter/_189", "op": "Enter", "input": ["StatefulPartitionedCall/model_1/bidirectional_1/forward_lstm_1/PartitionedCall/strided_slice"], "attr": {"parallel_iterations": {"i": "32"}, "frame_name": {"s": "U3RhdGVmdWxQYXJ0aXRpb25lZENhbGwvbW9kZWxfMS9iaWRpcmVjdGlvbmFsXzEvZm9yd2FyZF9sc3RtXzEvUGFydGl0aW9uZWRDYWxsL3doaWxl"}, "T": {"type": "DT_INT32"}, "is_constant": {"b": false}}}, {"name": "StatefulPartitionedCall/model_1/bidirectional_1/backward_lstm_1/zeros_1", "op": "Fill", "input": ["StatefulPartitionedCall/model_1/bidirectional_1/backward_lstm_1/zeros_1/packed", "StatefulPartitionedCall/model_1/bidirectional_1/backward_lstm_1/zeros_1/Const"], "attr": {"T": {"type": "DT_FLOAT"}, "index_type": {"type": "DT_INT32"}}}, {"name": "StatefulPartitionedCall/model_1/bidirectional_1/backward_lstm_1/zeros", "op": "Fill", "input": ["StatefulPartitionedCall/model_1/bidirectional_1/backward_lstm_1/zeros/packed", "StatefulPartitionedCall/model_1/bidirectional_1/backward_lstm_1/zeros/Const"], "attr": {"T": {"type": "DT_FLOAT"}, "index_type": {"type": "DT_INT32"}}}, {"name": "StatefulPartitionedCall/model_1/bidirectional_1/backward_lstm_1/PartitionedCall/while/enter/_250", "op": "Enter", "input": ["StatefulPartitionedCall/model_1/bidirectional_1/backward_lstm_1/PartitionedCall/TensorArrayUnstack/TensorListFromTensor"], "attr": {"T": {"type": "DT_VARIANT"}, "parallel_iterations": {"i": "32"}, "frame_name": {"s": "U3RhdGVmdWxQYXJ0aXRpb25lZENhbGwvbW9kZWxfMS9iaWRpcmVjdGlvbmFsXzEvYmFja3dhcmRfbHN0bV8xL1BhcnRpdGlvbmVkQ2FsbC93aGlsZQ=="}, "is_constant": {"b": false}}}, {"name": "StatefulPartitionedCall/model_1/bidirectional_1/backward_lstm_1/PartitionedCall/while/enter/_249", "op": "Enter", "input": ["StatefulPartitionedCall/model_1/bidirectional_1/backward_lstm_1/PartitionedCall/strided_slice"], "attr": {"is_constant": {"b": false}, "T": {"type": "DT_INT32"}, "frame_name": {"s": "U3RhdGVmdWxQYXJ0aXRpb25lZENhbGwvbW9kZWxfMS9iaWRpcmVjdGlvbmFsXzEvYmFja3dhcmRfbHN0bV8xL1BhcnRpdGlvbmVkQ2FsbC93aGlsZQ=="}, "parallel_iterations": {"i": "32"}}}, {"name": "StatefulPartitionedCall/model_1/bidirectional/forward_lstm/PartitionedCall/while/body/_62/while/Tanh_1", "op": "Tanh", "input": ["StatefulPartitionedCall/model_1/bidirectional/forward_lstm/PartitionedCall/while/body/_62/while/add_1"], "attr": {"T": {"type": "DT_FLOAT"}}}, {"name": "StatefulPartitionedCall/model_1/bidirectional/forward_lstm/PartitionedCall/while/next_iteration/_115", "op": "NextIteration", "input": ["StatefulPartitionedCall/model_1/bidirectional/forward_lstm/PartitionedCall/while/body/_62/while/add_1", "^StatefulPartitionedCall/model_1/bidirectional/forward_lstm/PartitionedCall/while/loop_body_control/_97"], "attr": {"T": {"type": "DT_FLOAT"}}}, {"name": "StatefulPartitionedCall/model_1/bidirectional/backward_lstm/PartitionedCall/while/body/_122/while/Tanh_1", "op": "Tanh", "input": ["StatefulPartitionedCall/model_1/bidirectional/backward_lstm/PartitionedCall/while/body/_122/while/add_1"], "attr": {"T": {"type": "DT_FLOAT"}}}, {"name": "StatefulPartitionedCall/model_1/bidirectional/backward_lstm/PartitionedCall/while/next_iteration/_175", "op": "NextIteration", "input": ["StatefulPartitionedCall/model_1/bidirectional/backward_lstm/PartitionedCall/while/body/_122/while/add_1", "^StatefulPartitionedCall/model_1/bidirectional/backward_lstm/PartitionedCall/while/loop_body_control/_157"], "attr": {"T": {"type": "DT_FLOAT"}}}, {"name": "StatefulPartitionedCall/model_1/bidirectional_1/forward_lstm_1/PartitionedCall/while/enter/_188", "op": "Enter", "input": ["StatefulPartitionedCall/model_1/bidirectional_1/forward_lstm_1/zeros_1"], "attr": {"is_constant": {"b": false}, "parallel_iterations": {"i": "32"}, "T": {"type": "DT_FLOAT"}, "frame_name": {"s": "U3RhdGVmdWxQYXJ0aXRpb25lZENhbGwvbW9kZWxfMS9iaWRpcmVjdGlvbmFsXzEvZm9yd2FyZF9sc3RtXzEvUGFydGl0aW9uZWRDYWxsL3doaWxl"}}}, {"name": "StatefulPartitionedCall/model_1/bidirectional_1/forward_lstm_1/PartitionedCall/while/enter/_187", "op": "Enter", "input": ["StatefulPartitionedCall/model_1/bidirectional_1/forward_lstm_1/zeros"], "attr": {"T": {"type": "DT_FLOAT"}, "is_constant": {"b": false}, "parallel_iterations": {"i": "32"}, "frame_name": {"s": "U3RhdGVmdWxQYXJ0aXRpb25lZENhbGwvbW9kZWxfMS9iaWRpcmVjdGlvbmFsXzEvZm9yd2FyZF9sc3RtXzEvUGFydGl0aW9uZWRDYWxsL3doaWxl"}}}, {"name": "StatefulPartitionedCall/model_1/bidirectional_1/forward_lstm_1/PartitionedCall/while/merge/_200", "op": "Merge", "input": ["StatefulPartitionedCall/model_1/bidirectional_1/forward_lstm_1/PartitionedCall/while/enter/_189", "StatefulPartitionedCall/model_1/bidirectional_1/forward_lstm_1/PartitionedCall/while/next_iteration/_236"], "attr": {"T": {"type": "DT_INT32"}, "N": {"i": "2"}}}, {"name": "StatefulPartitionedCall/model_1/bidirectional_1/backward_lstm_1/PartitionedCall/while/enter/_248", "op": "Enter", "input": ["StatefulPartitionedCall/model_1/bidirectional_1/backward_lstm_1/zeros_1"], "attr": {"frame_name": {"s": "U3RhdGVmdWxQYXJ0aXRpb25lZENhbGwvbW9kZWxfMS9iaWRpcmVjdGlvbmFsXzEvYmFja3dhcmRfbHN0bV8xL1BhcnRpdGlvbmVkQ2FsbC93aGlsZQ=="}, "parallel_iterations": {"i": "32"}, "is_constant": {"b": false}, "T": {"type": "DT_FLOAT"}}}, {"name": "StatefulPartitionedCall/model_1/bidirectional_1/backward_lstm_1/PartitionedCall/while/enter/_247", "op": "Enter", "input": ["StatefulPartitionedCall/model_1/bidirectional_1/backward_lstm_1/zeros"], "attr": {"parallel_iterations": {"i": "32"}, "T": {"type": "DT_FLOAT"}, "is_constant": {"b": false}, "frame_name": {"s": "U3RhdGVmdWxQYXJ0aXRpb25lZENhbGwvbW9kZWxfMS9iaWRpcmVjdGlvbmFsXzEvYmFja3dhcmRfbHN0bV8xL1BhcnRpdGlvbmVkQ2FsbC93aGlsZQ=="}}}, {"name": "StatefulPartitionedCall/model_1/bidirectional_1/backward_lstm_1/PartitionedCall/while/merge/_261", "op": "Merge", "input": ["StatefulPartitionedCall/model_1/bidirectional_1/backward_lstm_1/PartitionedCall/while/enter/_250", "StatefulPartitionedCall/model_1/bidirectional_1/backward_lstm_1/PartitionedCall/while/next_iteration/_297"], "attr": {"N": {"i": "2"}, "T": {"type": "DT_VARIANT"}}}, {"name": "StatefulPartitionedCall/model_1/bidirectional_1/backward_lstm_1/PartitionedCall/while/merge/_260", "op": "Merge", "input": ["StatefulPartitionedCall/model_1/bidirectional_1/backward_lstm_1/PartitionedCall/while/enter/_249", "StatefulPartitionedCall/model_1/bidirectional_1/backward_lstm_1/PartitionedCall/while/next_iteration/_296"], "attr": {"N": {"i": "2"}, "T": {"type": "DT_INT32"}}}, {"name": "StatefulPartitionedCall/model_1/bidirectional/forward_lstm/PartitionedCall/while/body/_62/while/mul_2", "op": "Mul", "input": ["StatefulPartitionedCall/model_1/bidirectional/forward_lstm/PartitionedCall/while/body/_62/while/Sigmoid_2", "StatefulPartitionedCall/model_1/bidirectional/forward_lstm/PartitionedCall/while/body/_62/while/Tanh_1"], "attr": {"T": {"type": "DT_FLOAT"}}}, {"name": "StatefulPartitionedCall/model_1/bidirectional/backward_lstm/PartitionedCall/while/body/_122/while/mul_2", "op": "Mul", "input": ["StatefulPartitionedCall/model_1/bidirectional/backward_lstm/PartitionedCall/while/body/_122/while/Sigmoid_2", "StatefulPartitionedCall/model_1/bidirectional/backward_lstm/PartitionedCall/while/body/_122/while/Tanh_1"], "attr": {"T": {"type": "DT_FLOAT"}}}, {"name": "StatefulPartitionedCall/model_1/bidirectional_1/forward_lstm_1/PartitionedCall/while/merge/_199", "op": "Merge", "input": ["StatefulPartitionedCall/model_1/bidirectional_1/forward_lstm_1/PartitionedCall/while/enter/_188", "StatefulPartitionedCall/model_1/bidirectional_1/forward_lstm_1/PartitionedCall/while/next_iteration/_235"], "attr": {"T": {"type": "DT_FLOAT"}, "N": {"i": "2"}}}, {"name": "StatefulPartitionedCall/model_1/bidirectional_1/forward_lstm_1/PartitionedCall/while/merge/_198", "op": "Merge", "input": ["StatefulPartitionedCall/model_1/bidirectional_1/forward_lstm_1/PartitionedCall/while/enter/_187", "StatefulPartitionedCall/model_1/bidirectional_1/forward_lstm_1/PartitionedCall/while/next_iteration/_234"], "attr": {"T": {"type": "DT_FLOAT"}, "N": {"i": "2"}}}, {"name": "StatefulPartitionedCall/model_1/bidirectional_1/forward_lstm_1/PartitionedCall/while/cond/_181/while/Less", "op": "Less", "input": ["StatefulPartitionedCall/model_1/bidirectional_1/forward_lstm_1/PartitionedCall/while/merge/_196", "StatefulPartitionedCall/model_1/bidirectional_1/forward_lstm_1/PartitionedCall/while/merge/_200", "^StatefulPartitionedCall/model_1/bidirectional_1/forward_lstm_1/PartitionedCall/while/merge/_194"], "attr": {"T": {"type": "DT_INT32"}}}, {"name": "StatefulPartitionedCall/model_1/bidirectional_1/backward_lstm_1/PartitionedCall/while/merge/_259", "op": "Merge", "input": ["StatefulPartitionedCall/model_1/bidirectional_1/backward_lstm_1/PartitionedCall/while/enter/_248", "StatefulPartitionedCall/model_1/bidirectional_1/backward_lstm_1/PartitionedCall/while/next_iteration/_295"], "attr": {"N": {"i": "2"}, "T": {"type": "DT_FLOAT"}}}, {"name": "StatefulPartitionedCall/model_1/bidirectional_1/backward_lstm_1/PartitionedCall/while/merge/_258", "op": "Merge", "input": ["StatefulPartitionedCall/model_1/bidirectional_1/backward_lstm_1/PartitionedCall/while/enter/_247", "StatefulPartitionedCall/model_1/bidirectional_1/backward_lstm_1/PartitionedCall/while/next_iteration/_294"], "attr": {"N": {"i": "2"}, "T": {"type": "DT_FLOAT"}}}, {"name": "StatefulPartitionedCall/model_1/bidirectional_1/backward_lstm_1/PartitionedCall/while/cond/_241/while/Less", "op": "Less", "input": ["StatefulPartitionedCall/model_1/bidirectional_1/backward_lstm_1/PartitionedCall/while/merge/_256", "StatefulPartitionedCall/model_1/bidirectional_1/backward_lstm_1/PartitionedCall/while/merge/_260", "^StatefulPartitionedCall/model_1/bidirectional_1/backward_lstm_1/PartitionedCall/while/merge/_254"], "attr": {"T": {"type": "DT_INT32"}}}, {"name": "StatefulPartitionedCall/model_1/bidirectional/forward_lstm/PartitionedCall/while/next_iteration/_114", "op": "NextIteration", "input": ["StatefulPartitionedCall/model_1/bidirectional/forward_lstm/PartitionedCall/while/body/_62/while/mul_2", "^StatefulPartitionedCall/model_1/bidirectional/forward_lstm/PartitionedCall/while/loop_body_control/_97"], "attr": {"T": {"type": "DT_FLOAT"}}}, {"name": "StatefulPartitionedCall/model_1/bidirectional/forward_lstm/PartitionedCall/while/body/_62/while/TensorArrayV2Write/TensorListSetItem", "op": "TensorListSetItem", "input": ["StatefulPartitionedCall/model_1/bidirectional/forward_lstm/PartitionedCall/while/StatefulPartitionedCall/model_1/bidirectional/forward_lstm/PartitionedCall/TensorArrayV2_1_switch/_89:1", "Func/StatefulPartitionedCall/model_1/bidirectional/forward_lstm/PartitionedCall/while/body/_62/input/_317", "StatefulPartitionedCall/model_1/bidirectional/forward_lstm/PartitionedCall/while/body/_62/while/mul_2"], "attr": {"element_dtype": {"type": "DT_FLOAT"}, "resize_if_index_out_of_bounds": {"b": false}}, "experimentalType": {"typeId": "TFT_PRODUCT", "args": [{"typeId": "TFT_ARRAY", "args": [{"typeId": "TFT_TENSOR", "args": [{"typeId": "TFT_FLOAT"}]}]}]}}, {"name": "StatefulPartitionedCall/model_1/bidirectional/backward_lstm/PartitionedCall/while/next_iteration/_174", "op": "NextIteration", "input": ["StatefulPartitionedCall/model_1/bidirectional/backward_lstm/PartitionedCall/while/body/_122/while/mul_2", "^StatefulPartitionedCall/model_1/bidirectional/backward_lstm/PartitionedCall/while/loop_body_control/_157"], "attr": {"T": {"type": "DT_FLOAT"}}}, {"name": "StatefulPartitionedCall/model_1/bidirectional/backward_lstm/PartitionedCall/while/body/_122/while/TensorArrayV2Write/TensorListSetItem", "op": "TensorListSetItem", "input": ["StatefulPartitionedCall/model_1/bidirectional/backward_lstm/PartitionedCall/while/StatefulPartitionedCall/model_1/bidirectional/backward_lstm/PartitionedCall/TensorArrayV2_1_switch/_149:1", "Func/StatefulPartitionedCall/model_1/bidirectional/backward_lstm/PartitionedCall/while/body/_122/input/_354", "StatefulPartitionedCall/model_1/bidirectional/backward_lstm/PartitionedCall/while/body/_122/while/mul_2"], "attr": {"resize_if_index_out_of_bounds": {"b": false}, "element_dtype": {"type": "DT_FLOAT"}}, "experimentalType": {"typeId": "TFT_PRODUCT", "args": [{"typeId": "TFT_ARRAY", "args": [{"typeId": "TFT_TENSOR", "args": [{"typeId": "TFT_FLOAT"}]}]}]}}, {"name": "StatefulPartitionedCall/model_1/bidirectional_1/forward_lstm_1/PartitionedCall/while/LoopCond/_205", "op": "LoopCond", "input": ["StatefulPartitionedCall/model_1/bidirectional_1/forward_lstm_1/PartitionedCall/while/cond/_181/while/Less"]}, {"name": "StatefulPartitionedCall/model_1/bidirectional_1/backward_lstm_1/PartitionedCall/while/LoopCond/_265", "op": "LoopCond", "input": ["StatefulPartitionedCall/model_1/bidirectional_1/backward_lstm_1/PartitionedCall/while/cond/_241/while/Less"]}, {"name": "StatefulPartitionedCall/model_1/bidirectional/forward_lstm/PartitionedCall/while/next_iteration/_113", "op": "NextIteration", "input": ["StatefulPartitionedCall/model_1/bidirectional/forward_lstm/PartitionedCall/while/body/_62/while/TensorArrayV2Write/TensorListSetItem", "^StatefulPartitionedCall/model_1/bidirectional/forward_lstm/PartitionedCall/while/loop_body_control/_97"], "attr": {"T": {"type": "DT_VARIANT"}}}, {"name": "StatefulPartitionedCall/model_1/bidirectional/backward_lstm/PartitionedCall/while/next_iteration/_173", "op": "NextIteration", "input": ["StatefulPartitionedCall/model_1/bidirectional/backward_lstm/PartitionedCall/while/body/_122/while/TensorArrayV2Write/TensorListSetItem", "^StatefulPartitionedCall/model_1/bidirectional/backward_lstm/PartitionedCall/while/loop_body_control/_157"], "attr": {"T": {"type": "DT_VARIANT"}}}, {"name": "StatefulPartitionedCall/model_1/bidirectional_1/forward_lstm_1/PartitionedCall/while/Func/StatefulPartitionedCall/model_1/bidirectional_1/forward_lstm_1/PartitionedCall/input/_41_switch/_211", "op": "Switch", "input": ["StatefulPartitionedCall/model_1/bidirectional_1/forward_lstm_1/PartitionedCall/while/merge/_199", "StatefulPartitionedCall/model_1/bidirectional_1/forward_lstm_1/PartitionedCall/while/LoopCond/_205"], "attr": {"T": {"type": "DT_FLOAT"}}}, {"name": "StatefulPartitionedCall/model_1/bidirectional_1/forward_lstm_1/PartitionedCall/while/StatefulPartitionedCall/model_1/bidirectional_1/forward_lstm_1/PartitionedCall/TensorArrayUnstack/TensorListFromTensor_switch/_213", "op": "Switch", "input": ["StatefulPartitionedCall/model_1/bidirectional_1/forward_lstm_1/PartitionedCall/while/merge/_201", "StatefulPartitionedCall/model_1/bidirectional_1/forward_lstm_1/PartitionedCall/while/LoopCond/_205"], "attr": {"T": {"type": "DT_VARIANT"}}}, {"name": "StatefulPartitionedCall/model_1/bidirectional_1/forward_lstm_1/PartitionedCall/while/Func/StatefulPartitionedCall/model_1/bidirectional_1/forward_lstm_1/PartitionedCall/input/_42_switch/_214", "op": "Switch", "input": ["StatefulPartitionedCall/model_1/bidirectional_1/forward_lstm_1/PartitionedCall/while/merge/_202", "StatefulPartitionedCall/model_1/bidirectional_1/forward_lstm_1/PartitionedCall/while/LoopCond/_205"], "attr": {"T": {"type": "DT_FLOAT"}}}, {"name": "StatefulPartitionedCall/model_1/bidirectional_1/forward_lstm_1/PartitionedCall/while/Func/StatefulPartitionedCall/model_1/bidirectional_1/forward_lstm_1/PartitionedCall/input/_40_switch/_210", "op": "Switch", "input": ["StatefulPartitionedCall/model_1/bidirectional_1/forward_lstm_1/PartitionedCall/while/merge/_198", "StatefulPartitionedCall/model_1/bidirectional_1/forward_lstm_1/PartitionedCall/while/LoopCond/_205"], "attr": {"T": {"type": "DT_FLOAT"}}}, {"name": "StatefulPartitionedCall/model_1/bidirectional_1/forward_lstm_1/PartitionedCall/while/Func/StatefulPartitionedCall/model_1/bidirectional_1/forward_lstm_1/PartitionedCall/input/_43_switch/_215", "op": "Switch", "input": ["StatefulPartitionedCall/model_1/bidirectional_1/forward_lstm_1/PartitionedCall/while/merge/_203", "StatefulPartitionedCall/model_1/bidirectional_1/forward_lstm_1/PartitionedCall/while/LoopCond/_205"], "attr": {"T": {"type": "DT_FLOAT"}}}, {"name": "StatefulPartitionedCall/model_1/bidirectional_1/forward_lstm_1/PartitionedCall/while/Func/StatefulPartitionedCall/model_1/bidirectional_1/forward_lstm_1/PartitionedCall/input/_44_switch/_216", "op": "Switch", "input": ["StatefulPartitionedCall/model_1/bidirectional_1/forward_lstm_1/PartitionedCall/while/merge/_204", "StatefulPartitionedCall/model_1/bidirectional_1/forward_lstm_1/PartitionedCall/while/LoopCond/_205"], "attr": {"T": {"type": "DT_FLOAT"}}}, {"name": "StatefulPartitionedCall/model_1/bidirectional_1/forward_lstm_1/PartitionedCall/while/StatefulPartitionedCall/model_1/bidirectional_1/forward_lstm_1/PartitionedCall/time_switch/_208", "op": "Switch", "input": ["StatefulPartitionedCall/model_1/bidirectional_1/forward_lstm_1/PartitionedCall/while/merge/_196", "StatefulPartitionedCall/model_1/bidirectional_1/forward_lstm_1/PartitionedCall/while/LoopCond/_205"], "attr": {"T": {"type": "DT_INT32"}}}, {"name": "StatefulPartitionedCall/model_1/bidirectional_1/forward_lstm_1/PartitionedCall/while/StatefulPartitionedCall/model_1/bidirectional_1/forward_lstm_1/PartitionedCall/while/loop_counter_switch/_206", "op": "Switch", "input": ["StatefulPartitionedCall/model_1/bidirectional_1/forward_lstm_1/PartitionedCall/while/merge/_194", "StatefulPartitionedCall/model_1/bidirectional_1/forward_lstm_1/PartitionedCall/while/LoopCond/_205"], "attr": {"T": {"type": "DT_INT32"}}}, {"name": "StatefulPartitionedCall/model_1/bidirectional_1/forward_lstm_1/PartitionedCall/while/StatefulPartitionedCall/model_1/bidirectional_1/forward_lstm_1/PartitionedCall/TensorArrayV2_1_switch/_209", "op": "Switch", "input": ["StatefulPartitionedCall/model_1/bidirectional_1/forward_lstm_1/PartitionedCall/while/merge/_197", "StatefulPartitionedCall/model_1/bidirectional_1/forward_lstm_1/PartitionedCall/while/LoopCond/_205"], "attr": {"T": {"type": "DT_VARIANT"}}}, {"name": "StatefulPartitionedCall/model_1/bidirectional_1/forward_lstm_1/PartitionedCall/while/StatefulPartitionedCall/model_1/bidirectional_1/forward_lstm_1/PartitionedCall/strided_slice_switch/_212", "op": "Switch", "input": ["StatefulPartitionedCall/model_1/bidirectional_1/forward_lstm_1/PartitionedCall/while/merge/_200", "StatefulPartitionedCall/model_1/bidirectional_1/forward_lstm_1/PartitionedCall/while/LoopCond/_205"], "attr": {"T": {"type": "DT_INT32"}}}, {"name": "StatefulPartitionedCall/model_1/bidirectional_1/backward_lstm_1/PartitionedCall/while/Func/StatefulPartitionedCall/model_1/bidirectional_1/backward_lstm_1/PartitionedCall/input/_52_switch/_271", "op": "Switch", "input": ["StatefulPartitionedCall/model_1/bidirectional_1/backward_lstm_1/PartitionedCall/while/merge/_259", "StatefulPartitionedCall/model_1/bidirectional_1/backward_lstm_1/PartitionedCall/while/LoopCond/_265"], "attr": {"T": {"type": "DT_FLOAT"}}}, {"name": "StatefulPartitionedCall/model_1/bidirectional_1/backward_lstm_1/PartitionedCall/while/StatefulPartitionedCall/model_1/bidirectional_1/backward_lstm_1/PartitionedCall/TensorArrayUnstack/TensorListFromTensor_switch/_273", "op": "Switch", "input": ["StatefulPartitionedCall/model_1/bidirectional_1/backward_lstm_1/PartitionedCall/while/merge/_261", "StatefulPartitionedCall/model_1/bidirectional_1/backward_lstm_1/PartitionedCall/while/LoopCond/_265"], "attr": {"T": {"type": "DT_VARIANT"}}}, {"name": "StatefulPartitionedCall/model_1/bidirectional_1/backward_lstm_1/PartitionedCall/while/Func/StatefulPartitionedCall/model_1/bidirectional_1/backward_lstm_1/PartitionedCall/input/_53_switch/_274", "op": "Switch", "input": ["StatefulPartitionedCall/model_1/bidirectional_1/backward_lstm_1/PartitionedCall/while/merge/_262", "StatefulPartitionedCall/model_1/bidirectional_1/backward_lstm_1/PartitionedCall/while/LoopCond/_265"], "attr": {"T": {"type": "DT_FLOAT"}}}, {"name": "StatefulPartitionedCall/model_1/bidirectional_1/backward_lstm_1/PartitionedCall/while/Func/StatefulPartitionedCall/model_1/bidirectional_1/backward_lstm_1/PartitionedCall/input/_51_switch/_270", "op": "Switch", "input": ["StatefulPartitionedCall/model_1/bidirectional_1/backward_lstm_1/PartitionedCall/while/merge/_258", "StatefulPartitionedCall/model_1/bidirectional_1/backward_lstm_1/PartitionedCall/while/LoopCond/_265"], "attr": {"T": {"type": "DT_FLOAT"}}}, {"name": "StatefulPartitionedCall/model_1/bidirectional_1/backward_lstm_1/PartitionedCall/while/Func/StatefulPartitionedCall/model_1/bidirectional_1/backward_lstm_1/PartitionedCall/input/_54_switch/_275", "op": "Switch", "input": ["StatefulPartitionedCall/model_1/bidirectional_1/backward_lstm_1/PartitionedCall/while/merge/_263", "StatefulPartitionedCall/model_1/bidirectional_1/backward_lstm_1/PartitionedCall/while/LoopCond/_265"], "attr": {"T": {"type": "DT_FLOAT"}}}, {"name": "StatefulPartitionedCall/model_1/bidirectional_1/backward_lstm_1/PartitionedCall/while/Func/StatefulPartitionedCall/model_1/bidirectional_1/backward_lstm_1/PartitionedCall/input/_55_switch/_276", "op": "Switch", "input": ["StatefulPartitionedCall/model_1/bidirectional_1/backward_lstm_1/PartitionedCall/while/merge/_264", "StatefulPartitionedCall/model_1/bidirectional_1/backward_lstm_1/PartitionedCall/while/LoopCond/_265"], "attr": {"T": {"type": "DT_FLOAT"}}}, {"name": "StatefulPartitionedCall/model_1/bidirectional_1/backward_lstm_1/PartitionedCall/while/StatefulPartitionedCall/model_1/bidirectional_1/backward_lstm_1/PartitionedCall/time_switch/_268", "op": "Switch", "input": ["StatefulPartitionedCall/model_1/bidirectional_1/backward_lstm_1/PartitionedCall/while/merge/_256", "StatefulPartitionedCall/model_1/bidirectional_1/backward_lstm_1/PartitionedCall/while/LoopCond/_265"], "attr": {"T": {"type": "DT_INT32"}}}, {"name": "StatefulPartitionedCall/model_1/bidirectional_1/backward_lstm_1/PartitionedCall/while/StatefulPartitionedCall/model_1/bidirectional_1/backward_lstm_1/PartitionedCall/while/loop_counter_switch/_266", "op": "Switch", "input": ["StatefulPartitionedCall/model_1/bidirectional_1/backward_lstm_1/PartitionedCall/while/merge/_254", "StatefulPartitionedCall/model_1/bidirectional_1/backward_lstm_1/PartitionedCall/while/LoopCond/_265"], "attr": {"T": {"type": "DT_INT32"}}}, {"name": "StatefulPartitionedCall/model_1/bidirectional_1/backward_lstm_1/PartitionedCall/while/StatefulPartitionedCall/model_1/bidirectional_1/backward_lstm_1/PartitionedCall/TensorArrayV2_1_switch/_269", "op": "Switch", "input": ["StatefulPartitionedCall/model_1/bidirectional_1/backward_lstm_1/PartitionedCall/while/merge/_257", "StatefulPartitionedCall/model_1/bidirectional_1/backward_lstm_1/PartitionedCall/while/LoopCond/_265"], "attr": {"T": {"type": "DT_VARIANT"}}}, {"name": "StatefulPartitionedCall/model_1/bidirectional_1/backward_lstm_1/PartitionedCall/while/StatefulPartitionedCall/model_1/bidirectional_1/backward_lstm_1/PartitionedCall/strided_slice_switch/_272", "op": "Switch", "input": ["StatefulPartitionedCall/model_1/bidirectional_1/backward_lstm_1/PartitionedCall/while/merge/_260", "StatefulPartitionedCall/model_1/bidirectional_1/backward_lstm_1/PartitionedCall/while/LoopCond/_265"], "attr": {"T": {"type": "DT_INT32"}}}, {"name": "StatefulPartitionedCall/model_1/bidirectional_1/forward_lstm_1/PartitionedCall/while/loop_body_control/_217", "op": "Identity", "input": ["StatefulPartitionedCall/model_1/bidirectional_1/forward_lstm_1/PartitionedCall/while/StatefulPartitionedCall/model_1/bidirectional_1/forward_lstm_1/PartitionedCall/while/loop_counter_switch/_206:1"], "attr": {"T": {"type": "DT_INT32"}, "_has_manual_control_dependencies": {"b": true}}}, {"name": "StatefulPartitionedCall/model_1/bidirectional_1/forward_lstm_1/PartitionedCall/while/exit/_221", "op": "Exit", "input": ["StatefulPartitionedCall/model_1/bidirectional_1/forward_lstm_1/PartitionedCall/while/StatefulPartitionedCall/model_1/bidirectional_1/forward_lstm_1/PartitionedCall/TensorArrayV2_1_switch/_209"], "attr": {"T": {"type": "DT_VARIANT"}}}, {"name": "StatefulPartitionedCall/model_1/bidirectional_1/backward_lstm_1/PartitionedCall/while/loop_body_control/_277", "op": "Identity", "input": ["StatefulPartitionedCall/model_1/bidirectional_1/backward_lstm_1/PartitionedCall/while/StatefulPartitionedCall/model_1/bidirectional_1/backward_lstm_1/PartitionedCall/while/loop_counter_switch/_266:1"], "attr": {"_has_manual_control_dependencies": {"b": true}, "T": {"type": "DT_INT32"}}}, {"name": "StatefulPartitionedCall/model_1/bidirectional_1/backward_lstm_1/PartitionedCall/while/exit/_281", "op": "Exit", "input": ["StatefulPartitionedCall/model_1/bidirectional_1/backward_lstm_1/PartitionedCall/while/StatefulPartitionedCall/model_1/bidirectional_1/backward_lstm_1/PartitionedCall/TensorArrayV2_1_switch/_269"], "attr": {"T": {"type": "DT_VARIANT"}}}, {"name": "StatefulPartitionedCall/model_1/bidirectional_1/forward_lstm_1/PartitionedCall/while/body/_182/while/TensorArrayV2Write/TensorListSetItem/index", "op": "Const", "input": ["^StatefulPartitionedCall/model_1/bidirectional_1/forward_lstm_1/PartitionedCall/while/loop_body_control/_217"], "attr": {"value": {"tensor": {"dtype": "DT_INT32", "tensorShape": {}}}, "dtype": {"type": "DT_INT32"}}}, {"name": "StatefulPartitionedCall/model_1/bidirectional_1/forward_lstm_1/PartitionedCall/while/body/_182/while/split/split_dim", "op": "Const", "input": ["^StatefulPartitionedCall/model_1/bidirectional_1/forward_lstm_1/PartitionedCall/while/loop_body_control/_217"], "attr": {"value": {"tensor": {"dtype": "DT_INT32", "tensorShape": {}}}, "dtype": {"type": "DT_INT32"}}}, {"name": "StatefulPartitionedCall/model_1/bidirectional_1/forward_lstm_1/PartitionedCall/while/next_iteration/_237", "op": "NextIteration", "input": ["StatefulPartitionedCall/model_1/bidirectional_1/forward_lstm_1/PartitionedCall/while/StatefulPartitionedCall/model_1/bidirectional_1/forward_lstm_1/PartitionedCall/TensorArrayUnstack/TensorListFromTensor_switch/_213:1", "^StatefulPartitionedCall/model_1/bidirectional_1/forward_lstm_1/PartitionedCall/while/loop_body_control/_217"], "attr": {"T": {"type": "DT_VARIANT"}}}, {"name": "StatefulPartitionedCall/model_1/bidirectional_1/forward_lstm_1/PartitionedCall/while/body/_182/while/TensorArrayV2Read/TensorListGetItem/element_shape", "op": "Const", "input": ["^StatefulPartitionedCall/model_1/bidirectional_1/forward_lstm_1/PartitionedCall/while/loop_body_control/_217"], "attr": {"value": {"tensor": {"dtype": "DT_INT32", "tensorShape": {"dim": [{"size": "2"}]}}}, "dtype": {"type": "DT_INT32"}}}, {"name": "StatefulPartitionedCall/model_1/bidirectional_1/forward_lstm_1/PartitionedCall/while/next_iteration/_238", "op": "NextIteration", "input": ["StatefulPartitionedCall/model_1/bidirectional_1/forward_lstm_1/PartitionedCall/while/Func/StatefulPartitionedCall/model_1/bidirectional_1/forward_lstm_1/PartitionedCall/input/_42_switch/_214:1", "^StatefulPartitionedCall/model_1/bidirectional_1/forward_lstm_1/PartitionedCall/while/loop_body_control/_217"], "attr": {"T": {"type": "DT_FLOAT"}}}, {"name": "StatefulPartitionedCall/model_1/bidirectional_1/forward_lstm_1/PartitionedCall/while/next_iteration/_239", "op": "NextIteration", "input": ["StatefulPartitionedCall/model_1/bidirectional_1/forward_lstm_1/PartitionedCall/while/Func/StatefulPartitionedCall/model_1/bidirectional_1/forward_lstm_1/PartitionedCall/input/_43_switch/_215:1", "^StatefulPartitionedCall/model_1/bidirectional_1/forward_lstm_1/PartitionedCall/while/loop_body_control/_217"], "attr": {"T": {"type": "DT_FLOAT"}}}, {"name": "StatefulPartitionedCall/model_1/bidirectional_1/forward_lstm_1/PartitionedCall/while/body/_182/while/MatMul_1", "op": "MatMul", "input": ["StatefulPartitionedCall/model_1/bidirectional_1/forward_lstm_1/PartitionedCall/while/Func/StatefulPartitionedCall/model_1/bidirectional_1/forward_lstm_1/PartitionedCall/input/_40_switch/_210:1", "StatefulPartitionedCall/model_1/bidirectional_1/forward_lstm_1/PartitionedCall/while/Func/StatefulPartitionedCall/model_1/bidirectional_1/forward_lstm_1/PartitionedCall/input/_43_switch/_215:1", "^StatefulPartitionedCall/model_1/bidirectional_1/forward_lstm_1/PartitionedCall/while/loop_body_control/_217"], "device": "/device:CPU:0", "attr": {"_input_shapes": {"list": {"shape": [{"dim": [{"size": "-41"}, {"size": "64"}]}, {"dim": [{"size": "64"}, {"size": "256"}]}]}}, "T": {"type": "DT_FLOAT"}, "transpose_a": {"b": false}, "transpose_b": {"b": false}}}, {"name": "StatefulPartitionedCall/model_1/bidirectional_1/forward_lstm_1/PartitionedCall/while/next_iteration/_240", "op": "NextIteration", "input": ["StatefulPartitionedCall/model_1/bidirectional_1/forward_lstm_1/PartitionedCall/while/Func/StatefulPartitionedCall/model_1/bidirectional_1/forward_lstm_1/PartitionedCall/input/_44_switch/_216:1", "^StatefulPartitionedCall/model_1/bidirectional_1/forward_lstm_1/PartitionedCall/while/loop_body_control/_217"], "attr": {"T": {"type": "DT_FLOAT"}}}, {"name": "StatefulPartitionedCall/model_1/bidirectional_1/forward_lstm_1/PartitionedCall/while/body/_182/while/add_2/y", "op": "Const", "input": ["^StatefulPartitionedCall/model_1/bidirectional_1/forward_lstm_1/PartitionedCall/while/loop_body_control/_217"], "attr": {"value": {"tensor": {"dtype": "DT_INT32", "tensorShape": {}}}, "dtype": {"type": "DT_INT32"}}}, {"name": "StatefulPartitionedCall/model_1/bidirectional_1/forward_lstm_1/PartitionedCall/while/body/_182/while/add_3/y", "op": "Const", "input": ["^StatefulPartitionedCall/model_1/bidirectional_1/forward_lstm_1/PartitionedCall/while/loop_body_control/_217"], "attr": {"value": {"tensor": {"dtype": "DT_INT32", "tensorShape": {}}}, "dtype": {"type": "DT_INT32"}}}, {"name": "StatefulPartitionedCall/model_1/bidirectional_1/forward_lstm_1/PartitionedCall/while/next_iteration/_236", "op": "NextIteration", "input": ["StatefulPartitionedCall/model_1/bidirectional_1/forward_lstm_1/PartitionedCall/while/StatefulPartitionedCall/model_1/bidirectional_1/forward_lstm_1/PartitionedCall/strided_slice_switch/_212:1", "^StatefulPartitionedCall/model_1/bidirectional_1/forward_lstm_1/PartitionedCall/while/loop_body_control/_217"], "attr": {"T": {"type": "DT_INT32"}}}, {"name": "StatefulPartitionedCall/model_1/bidirectional_1/forward_lstm_1/PartitionedCall/TensorArrayV2Stack/TensorListStack", "op": "TensorListStack", "input": ["StatefulPartitionedCall/model_1/bidirectional_1/forward_lstm_1/PartitionedCall/while/exit/_221", "StatefulPartitionedCall/model_1/bidirectional_1/forward_lstm_1/PartitionedCall/TensorArrayV2Stack/TensorListStack/element_shape"], "attr": {"num_elements": {"i": "1"}, "element_dtype": {"type": "DT_FLOAT"}}}, {"name": "StatefulPartitionedCall/model_1/bidirectional_1/backward_lstm_1/PartitionedCall/while/body/_242/while/TensorArrayV2Write/TensorListSetItem/index", "op": "Const", "input": ["^StatefulPartitionedCall/model_1/bidirectional_1/backward_lstm_1/PartitionedCall/while/loop_body_control/_277"], "attr": {"value": {"tensor": {"dtype": "DT_INT32", "tensorShape": {}}}, "dtype": {"type": "DT_INT32"}}}, {"name": "StatefulPartitionedCall/model_1/bidirectional_1/backward_lstm_1/PartitionedCall/while/body/_242/while/split/split_dim", "op": "Const", "input": ["^StatefulPartitionedCall/model_1/bidirectional_1/backward_lstm_1/PartitionedCall/while/loop_body_control/_277"], "attr": {"value": {"tensor": {"dtype": "DT_INT32", "tensorShape": {}}}, "dtype": {"type": "DT_INT32"}}}, {"name": "StatefulPartitionedCall/model_1/bidirectional_1/backward_lstm_1/PartitionedCall/while/next_iteration/_297", "op": "NextIteration", "input": ["StatefulPartitionedCall/model_1/bidirectional_1/backward_lstm_1/PartitionedCall/while/StatefulPartitionedCall/model_1/bidirectional_1/backward_lstm_1/PartitionedCall/TensorArrayUnstack/TensorListFromTensor_switch/_273:1", "^StatefulPartitionedCall/model_1/bidirectional_1/backward_lstm_1/PartitionedCall/while/loop_body_control/_277"], "attr": {"T": {"type": "DT_VARIANT"}}}, {"name": "StatefulPartitionedCall/model_1/bidirectional_1/backward_lstm_1/PartitionedCall/while/body/_242/while/TensorArrayV2Read/TensorListGetItem/element_shape", "op": "Const", "input": ["^StatefulPartitionedCall/model_1/bidirectional_1/backward_lstm_1/PartitionedCall/while/loop_body_control/_277"], "attr": {"dtype": {"type": "DT_INT32"}, "value": {"tensor": {"dtype": "DT_INT32", "tensorShape": {"dim": [{"size": "2"}]}}}}}, {"name": "StatefulPartitionedCall/model_1/bidirectional_1/backward_lstm_1/PartitionedCall/while/next_iteration/_298", "op": "NextIteration", "input": ["StatefulPartitionedCall/model_1/bidirectional_1/backward_lstm_1/PartitionedCall/while/Func/StatefulPartitionedCall/model_1/bidirectional_1/backward_lstm_1/PartitionedCall/input/_53_switch/_274:1", "^StatefulPartitionedCall/model_1/bidirectional_1/backward_lstm_1/PartitionedCall/while/loop_body_control/_277"], "attr": {"T": {"type": "DT_FLOAT"}}}, {"name": "StatefulPartitionedCall/model_1/bidirectional_1/backward_lstm_1/PartitionedCall/while/next_iteration/_299", "op": "NextIteration", "input": ["StatefulPartitionedCall/model_1/bidirectional_1/backward_lstm_1/PartitionedCall/while/Func/StatefulPartitionedCall/model_1/bidirectional_1/backward_lstm_1/PartitionedCall/input/_54_switch/_275:1", "^StatefulPartitionedCall/model_1/bidirectional_1/backward_lstm_1/PartitionedCall/while/loop_body_control/_277"], "attr": {"T": {"type": "DT_FLOAT"}}}, {"name": "StatefulPartitionedCall/model_1/bidirectional_1/backward_lstm_1/PartitionedCall/while/body/_242/while/MatMul_1", "op": "MatMul", "input": ["StatefulPartitionedCall/model_1/bidirectional_1/backward_lstm_1/PartitionedCall/while/Func/StatefulPartitionedCall/model_1/bidirectional_1/backward_lstm_1/PartitionedCall/input/_51_switch/_270:1", "StatefulPartitionedCall/model_1/bidirectional_1/backward_lstm_1/PartitionedCall/while/Func/StatefulPartitionedCall/model_1/bidirectional_1/backward_lstm_1/PartitionedCall/input/_54_switch/_275:1", "^StatefulPartitionedCall/model_1/bidirectional_1/backward_lstm_1/PartitionedCall/while/loop_body_control/_277"], "device": "/device:CPU:0", "attr": {"_input_shapes": {"list": {"shape": [{"dim": [{"size": "-50"}, {"size": "64"}]}, {"dim": [{"size": "64"}, {"size": "256"}]}]}}, "T": {"type": "DT_FLOAT"}, "transpose_a": {"b": false}, "transpose_b": {"b": false}}}, {"name": "StatefulPartitionedCall/model_1/bidirectional_1/backward_lstm_1/PartitionedCall/while/next_iteration/_300", "op": "NextIteration", "input": ["StatefulPartitionedCall/model_1/bidirectional_1/backward_lstm_1/PartitionedCall/while/Func/StatefulPartitionedCall/model_1/bidirectional_1/backward_lstm_1/PartitionedCall/input/_55_switch/_276:1", "^StatefulPartitionedCall/model_1/bidirectional_1/backward_lstm_1/PartitionedCall/while/loop_body_control/_277"], "attr": {"T": {"type": "DT_FLOAT"}}}, {"name": "StatefulPartitionedCall/model_1/bidirectional_1/backward_lstm_1/PartitionedCall/while/body/_242/while/add_2/y", "op": "Const", "input": ["^StatefulPartitionedCall/model_1/bidirectional_1/backward_lstm_1/PartitionedCall/while/loop_body_control/_277"], "attr": {"value": {"tensor": {"dtype": "DT_INT32", "tensorShape": {}}}, "dtype": {"type": "DT_INT32"}}}, {"name": "StatefulPartitionedCall/model_1/bidirectional_1/backward_lstm_1/PartitionedCall/while/body/_242/while/add_3/y", "op": "Const", "input": ["^StatefulPartitionedCall/model_1/bidirectional_1/backward_lstm_1/PartitionedCall/while/loop_body_control/_277"], "attr": {"value": {"tensor": {"dtype": "DT_INT32", "tensorShape": {}}}, "dtype": {"type": "DT_INT32"}}}, {"name": "StatefulPartitionedCall/model_1/bidirectional_1/backward_lstm_1/PartitionedCall/while/next_iteration/_296", "op": "NextIteration", "input": ["StatefulPartitionedCall/model_1/bidirectional_1/backward_lstm_1/PartitionedCall/while/StatefulPartitionedCall/model_1/bidirectional_1/backward_lstm_1/PartitionedCall/strided_slice_switch/_272:1", "^StatefulPartitionedCall/model_1/bidirectional_1/backward_lstm_1/PartitionedCall/while/loop_body_control/_277"], "attr": {"T": {"type": "DT_INT32"}}}, {"name": "StatefulPartitionedCall/model_1/bidirectional_1/backward_lstm_1/PartitionedCall/TensorArrayV2Stack/TensorListStack", "op": "TensorListStack", "input": ["StatefulPartitionedCall/model_1/bidirectional_1/backward_lstm_1/PartitionedCall/while/exit/_281", "StatefulPartitionedCall/model_1/bidirectional_1/backward_lstm_1/PartitionedCall/TensorArrayV2Stack/TensorListStack/element_shape"], "attr": {"num_elements": {"i": "1"}, "element_dtype": {"type": "DT_FLOAT"}}}, {"name": "StatefulPartitionedCall/model_1/bidirectional_1/forward_lstm_1/PartitionedCall/while/body/_182/while/TensorArrayV2Read/TensorListGetItem", "op": "TensorListGetItem", "input": ["StatefulPartitionedCall/model_1/bidirectional_1/forward_lstm_1/PartitionedCall/while/StatefulPartitionedCall/model_1/bidirectional_1/forward_lstm_1/PartitionedCall/TensorArrayUnstack/TensorListFromTensor_switch/_213:1", "StatefulPartitionedCall/model_1/bidirectional_1/forward_lstm_1/PartitionedCall/while/StatefulPartitionedCall/model_1/bidirectional_1/forward_lstm_1/PartitionedCall/time_switch/_208:1", "StatefulPartitionedCall/model_1/bidirectional_1/forward_lstm_1/PartitionedCall/while/body/_182/while/TensorArrayV2Read/TensorListGetItem/element_shape"], "attr": {"element_dtype": {"type": "DT_FLOAT"}}}, {"name": "StatefulPartitionedCall/model_1/bidirectional_1/forward_lstm_1/PartitionedCall/while/body/_182/while/add_2", "op": "AddV2", "input": ["StatefulPartitionedCall/model_1/bidirectional_1/forward_lstm_1/PartitionedCall/while/StatefulPartitionedCall/model_1/bidirectional_1/forward_lstm_1/PartitionedCall/time_switch/_208:1", "StatefulPartitionedCall/model_1/bidirectional_1/forward_lstm_1/PartitionedCall/while/body/_182/while/add_2/y"], "attr": {"T": {"type": "DT_INT32"}}}, {"name": "StatefulPartitionedCall/model_1/bidirectional_1/forward_lstm_1/PartitionedCall/while/body/_182/while/add_3", "op": "AddV2", "input": ["StatefulPartitionedCall/model_1/bidirectional_1/forward_lstm_1/PartitionedCall/while/StatefulPartitionedCall/model_1/bidirectional_1/forward_lstm_1/PartitionedCall/while/loop_counter_switch/_206:1", "StatefulPartitionedCall/model_1/bidirectional_1/forward_lstm_1/PartitionedCall/while/body/_182/while/add_3/y"], "attr": {"T": {"type": "DT_INT32"}}}, {"name": "StatefulPartitionedCall/model_1/bidirectional_1/forward_lstm_1/PartitionedCall/strided_slice_2", "op": "StridedSlice", "input": ["StatefulPartitionedCall/model_1/bidirectional_1/forward_lstm_1/PartitionedCall/TensorArrayV2Stack/TensorListStack", "StatefulPartitionedCall/model_1/bidirectional_1/forward_lstm_1/PartitionedCall/strided_slice_2/stack", "StatefulPartitionedCall/model_1/bidirectional_1/forward_lstm_1/PartitionedCall/strided_slice_2/stack_1", "StatefulPartitionedCall/model_1/bidirectional_1/forward_lstm_1/PartitionedCall/strided_slice_2/stack_2"], "attr": {"ellipsis_mask": {"i": "0"}, "end_mask": {"i": "0"}, "T": {"type": "DT_FLOAT"}, "Index": {"type": "DT_INT32"}, "shrink_axis_mask": {"i": "1"}, "begin_mask": {"i": "0"}, "new_axis_mask": {"i": "0"}}}, {"name": "StatefulPartitionedCall/model_1/bidirectional_1/backward_lstm_1/PartitionedCall/while/body/_242/while/TensorArrayV2Read/TensorListGetItem", "op": "TensorListGetItem", "input": ["StatefulPartitionedCall/model_1/bidirectional_1/backward_lstm_1/PartitionedCall/while/StatefulPartitionedCall/model_1/bidirectional_1/backward_lstm_1/PartitionedCall/TensorArrayUnstack/TensorListFromTensor_switch/_273:1", "StatefulPartitionedCall/model_1/bidirectional_1/backward_lstm_1/PartitionedCall/while/StatefulPartitionedCall/model_1/bidirectional_1/backward_lstm_1/PartitionedCall/time_switch/_268:1", "StatefulPartitionedCall/model_1/bidirectional_1/backward_lstm_1/PartitionedCall/while/body/_242/while/TensorArrayV2Read/TensorListGetItem/element_shape"], "attr": {"element_dtype": {"type": "DT_FLOAT"}}}, {"name": "StatefulPartitionedCall/model_1/bidirectional_1/backward_lstm_1/PartitionedCall/while/body/_242/while/add_2", "op": "AddV2", "input": ["StatefulPartitionedCall/model_1/bidirectional_1/backward_lstm_1/PartitionedCall/while/StatefulPartitionedCall/model_1/bidirectional_1/backward_lstm_1/PartitionedCall/time_switch/_268:1", "StatefulPartitionedCall/model_1/bidirectional_1/backward_lstm_1/PartitionedCall/while/body/_242/while/add_2/y"], "attr": {"T": {"type": "DT_INT32"}}}, {"name": "StatefulPartitionedCall/model_1/bidirectional_1/backward_lstm_1/PartitionedCall/while/body/_242/while/add_3", "op": "AddV2", "input": ["StatefulPartitionedCall/model_1/bidirectional_1/backward_lstm_1/PartitionedCall/while/StatefulPartitionedCall/model_1/bidirectional_1/backward_lstm_1/PartitionedCall/while/loop_counter_switch/_266:1", "StatefulPartitionedCall/model_1/bidirectional_1/backward_lstm_1/PartitionedCall/while/body/_242/while/add_3/y"], "attr": {"T": {"type": "DT_INT32"}}}, {"name": "StatefulPartitionedCall/model_1/bidirectional_1/backward_lstm_1/PartitionedCall/strided_slice_2", "op": "StridedSlice", "input": ["StatefulPartitionedCall/model_1/bidirectional_1/backward_lstm_1/PartitionedCall/TensorArrayV2Stack/TensorListStack", "StatefulPartitionedCall/model_1/bidirectional_1/backward_lstm_1/PartitionedCall/strided_slice_2/stack", "StatefulPartitionedCall/model_1/bidirectional_1/backward_lstm_1/PartitionedCall/strided_slice_2/stack_1", "StatefulPartitionedCall/model_1/bidirectional_1/backward_lstm_1/PartitionedCall/strided_slice_2/stack_2"], "attr": {"ellipsis_mask": {"i": "0"}, "new_axis_mask": {"i": "0"}, "end_mask": {"i": "0"}, "shrink_axis_mask": {"i": "1"}, "T": {"type": "DT_FLOAT"}, "begin_mask": {"i": "0"}, "Index": {"type": "DT_INT32"}}}, {"name": "StatefulPartitionedCall/model_1/bidirectional_1/forward_lstm_1/PartitionedCall/while/body/_182/while/add", "op": "_FusedMatMul", "input": ["StatefulPartitionedCall/model_1/bidirectional_1/forward_lstm_1/PartitionedCall/while/body/_182/while/TensorArrayV2Read/TensorListGetItem", "StatefulPartitionedCall/model_1/bidirectional_1/forward_lstm_1/PartitionedCall/while/Func/StatefulPartitionedCall/model_1/bidirectional_1/forward_lstm_1/PartitionedCall/input/_42_switch/_214:1", "StatefulPartitionedCall/model_1/bidirectional_1/forward_lstm_1/PartitionedCall/while/body/_182/while/MatMul_1"], "device": "/device:CPU:0", "attr": {"transpose_b": {"b": false}, "transpose_a": {"b": false}, "num_args": {"i": "1"}, "T": {"type": "DT_FLOAT"}, "_input_shapes": {"list": {"shape": [{"dim": [{"size": "-35"}, {"size": "128"}]}, {"dim": [{"size": "128"}, {"size": "256"}]}]}}, "fused_ops": {"list": {"s": ["Qmlhc0FkZA=="]}}, "leakyrelu_alpha": {"f": 0.2}, "epsilon": {"f": 0.0}}}, {"name": "StatefulPartitionedCall/model_1/bidirectional_1/forward_lstm_1/PartitionedCall/while/next_iteration/_232", "op": "NextIteration", "input": ["StatefulPartitionedCall/model_1/bidirectional_1/forward_lstm_1/PartitionedCall/while/body/_182/while/add_2", "^StatefulPartitionedCall/model_1/bidirectional_1/forward_lstm_1/PartitionedCall/while/loop_body_control/_217"], "attr": {"T": {"type": "DT_INT32"}}}, {"name": "StatefulPartitionedCall/model_1/bidirectional_1/forward_lstm_1/PartitionedCall/while/next_iteration/_230", "op": "NextIteration", "input": ["StatefulPartitionedCall/model_1/bidirectional_1/forward_lstm_1/PartitionedCall/while/body/_182/while/add_3", "^StatefulPartitionedCall/model_1/bidirectional_1/forward_lstm_1/PartitionedCall/while/loop_body_control/_217"], "attr": {"T": {"type": "DT_INT32"}}}, {"name": "StatefulPartitionedCall/model_1/bidirectional_1/backward_lstm_1/PartitionedCall/while/body/_242/while/add", "op": "_FusedMatMul", "input": ["StatefulPartitionedCall/model_1/bidirectional_1/backward_lstm_1/PartitionedCall/while/body/_242/while/TensorArrayV2Read/TensorListGetItem", "StatefulPartitionedCall/model_1/bidirectional_1/backward_lstm_1/PartitionedCall/while/Func/StatefulPartitionedCall/model_1/bidirectional_1/backward_lstm_1/PartitionedCall/input/_53_switch/_274:1", "StatefulPartitionedCall/model_1/bidirectional_1/backward_lstm_1/PartitionedCall/while/body/_242/while/MatMul_1"], "device": "/device:CPU:0", "attr": {"epsilon": {"f": 0.0}, "leakyrelu_alpha": {"f": 0.2}, "transpose_a": {"b": false}, "T": {"type": "DT_FLOAT"}, "num_args": {"i": "1"}, "_input_shapes": {"list": {"shape": [{"dim": [{"size": "-40"}, {"size": "128"}]}, {"dim": [{"size": "128"}, {"size": "256"}]}]}}, "transpose_b": {"b": false}, "fused_ops": {"list": {"s": ["Qmlhc0FkZA=="]}}}}, {"name": "StatefulPartitionedCall/model_1/bidirectional_1/backward_lstm_1/PartitionedCall/while/next_iteration/_292", "op": "NextIteration", "input": ["StatefulPartitionedCall/model_1/bidirectional_1/backward_lstm_1/PartitionedCall/while/body/_242/while/add_2", "^StatefulPartitionedCall/model_1/bidirectional_1/backward_lstm_1/PartitionedCall/while/loop_body_control/_277"], "attr": {"T": {"type": "DT_INT32"}}}, {"name": "StatefulPartitionedCall/model_1/bidirectional_1/backward_lstm_1/PartitionedCall/while/next_iteration/_290", "op": "NextIteration", "input": ["StatefulPartitionedCall/model_1/bidirectional_1/backward_lstm_1/PartitionedCall/while/body/_242/while/add_3", "^StatefulPartitionedCall/model_1/bidirectional_1/backward_lstm_1/PartitionedCall/while/loop_body_control/_277"], "attr": {"T": {"type": "DT_INT32"}}}, {"name": "StatefulPartitionedCall/model_1/bidirectional_1/concat", "op": "ConcatV2", "input": ["StatefulPartitionedCall/model_1/bidirectional_1/forward_lstm_1/PartitionedCall/strided_slice_2", "StatefulPartitionedCall/model_1/bidirectional_1/backward_lstm_1/PartitionedCall/strided_slice_2", "StatefulPartitionedCall/model_1/bidirectional_1/concat/axis"], "attr": {"N": {"i": "2"}, "Tidx": {"type": "DT_INT32"}, "T": {"type": "DT_FLOAT"}}}, {"name": "StatefulPartitionedCall/model_1/bidirectional_1/forward_lstm_1/PartitionedCall/while/body/_182/while/BiasAdd", "op": "BiasAdd", "input": ["StatefulPartitionedCall/model_1/bidirectional_1/forward_lstm_1/PartitionedCall/while/body/_182/while/add", "StatefulPartitionedCall/model_1/bidirectional_1/forward_lstm_1/PartitionedCall/while/Func/StatefulPartitionedCall/model_1/bidirectional_1/forward_lstm_1/PartitionedCall/input/_44_switch/_216:1"], "attr": {"_input_shapes": {"list": {"shape": [{"dim": [{"size": "-42"}, {"size": "256"}]}, {"dim": [{"size": "256"}]}]}}, "T": {"type": "DT_FLOAT"}, "data_format": {"s": "TkhXQw=="}}}, {"name": "StatefulPartitionedCall/model_1/bidirectional_1/backward_lstm_1/PartitionedCall/while/body/_242/while/BiasAdd", "op": "BiasAdd", "input": ["StatefulPartitionedCall/model_1/bidirectional_1/backward_lstm_1/PartitionedCall/while/body/_242/while/add", "StatefulPartitionedCall/model_1/bidirectional_1/backward_lstm_1/PartitionedCall/while/Func/StatefulPartitionedCall/model_1/bidirectional_1/backward_lstm_1/PartitionedCall/input/_55_switch/_276:1"], "attr": {"data_format": {"s": "TkhXQw=="}, "T": {"type": "DT_FLOAT"}, "_input_shapes": {"list": {"shape": [{"dim": [{"size": "-51"}, {"size": "256"}]}, {"dim": [{"size": "256"}]}]}}}}, {"name": "StatefulPartitionedCall/model_1/dense/Sigmoid", "op": "_FusedMatMul", "input": ["StatefulPartitionedCall/model_1/bidirectional_1/concat", "StatefulPartitionedCall/model_1/dense/MatMul/ReadVariableOp", "StatefulPartitionedCall/model_1/dense/BiasAdd/ReadVariableOp"], "device": "/device:CPU:0", "attr": {"epsilon": {"f": 0.0}, "leakyrelu_alpha": {"f": 0.2}, "fused_ops": {"list": {"s": ["Qmlhc0FkZA==", "U2lnbW9pZA=="]}}, "transpose_b": {"b": false}, "T": {"type": "DT_FLOAT"}, "transpose_a": {"b": false}, "num_args": {"i": "1"}}}, {"name": "StatefulPartitionedCall/model_1/bidirectional_1/forward_lstm_1/PartitionedCall/while/body/_182/while/split", "op": "Split", "input": ["StatefulPartitionedCall/model_1/bidirectional_1/forward_lstm_1/PartitionedCall/while/body/_182/while/split/split_dim", "StatefulPartitionedCall/model_1/bidirectional_1/forward_lstm_1/PartitionedCall/while/body/_182/while/BiasAdd"], "attr": {"num_split": {"i": "4"}, "T": {"type": "DT_FLOAT"}}}, {"name": "StatefulPartitionedCall/model_1/bidirectional_1/backward_lstm_1/PartitionedCall/while/body/_242/while/split", "op": "Split", "input": ["StatefulPartitionedCall/model_1/bidirectional_1/backward_lstm_1/PartitionedCall/while/body/_242/while/split/split_dim", "StatefulPartitionedCall/model_1/bidirectional_1/backward_lstm_1/PartitionedCall/while/body/_242/while/BiasAdd"], "attr": {"num_split": {"i": "4"}, "T": {"type": "DT_FLOAT"}}}, {"name": "Identity", "op": "Identity", "input": ["StatefulPartitionedCall/model_1/dense/Sigmoid"], "attr": {"T": {"type": "DT_FLOAT"}}}, {"name": "StatefulPartitionedCall/model_1/bidirectional_1/forward_lstm_1/PartitionedCall/while/body/_182/while/Sigmoid", "op": "Sigmoid", "input": ["StatefulPartitionedCall/model_1/bidirectional_1/forward_lstm_1/PartitionedCall/while/body/_182/while/split"], "attr": {"_input_shapes": {"list": {"shape": [{"dim": [{"size": "-42"}, {"size": "64"}]}]}}, "T": {"type": "DT_FLOAT"}}}, {"name": "StatefulPartitionedCall/model_1/bidirectional_1/forward_lstm_1/PartitionedCall/while/body/_182/while/Sigmoid_1", "op": "Sigmoid", "input": ["StatefulPartitionedCall/model_1/bidirectional_1/forward_lstm_1/PartitionedCall/while/body/_182/while/split:1"], "attr": {"T": {"type": "DT_FLOAT"}, "_input_shapes": {"list": {"shape": [{"dim": [{"size": "-42"}, {"size": "64"}]}]}}}}, {"name": "StatefulPartitionedCall/model_1/bidirectional_1/forward_lstm_1/PartitionedCall/while/body/_182/while/Tanh", "op": "Tanh", "input": ["StatefulPartitionedCall/model_1/bidirectional_1/forward_lstm_1/PartitionedCall/while/body/_182/while/split:2"], "attr": {"T": {"type": "DT_FLOAT"}}}, {"name": "StatefulPartitionedCall/model_1/bidirectional_1/forward_lstm_1/PartitionedCall/while/body/_182/while/Sigmoid_2", "op": "Sigmoid", "input": ["StatefulPartitionedCall/model_1/bidirectional_1/forward_lstm_1/PartitionedCall/while/body/_182/while/split:3"], "attr": {"_input_shapes": {"list": {"shape": [{"dim": [{"size": "-42"}, {"size": "64"}]}]}}, "T": {"type": "DT_FLOAT"}}}, {"name": "StatefulPartitionedCall/model_1/bidirectional_1/backward_lstm_1/PartitionedCall/while/body/_242/while/Sigmoid", "op": "Sigmoid", "input": ["StatefulPartitionedCall/model_1/bidirectional_1/backward_lstm_1/PartitionedCall/while/body/_242/while/split"], "attr": {"T": {"type": "DT_FLOAT"}}}, {"name": "StatefulPartitionedCall/model_1/bidirectional_1/backward_lstm_1/PartitionedCall/while/body/_242/while/Sigmoid_1", "op": "Sigmoid", "input": ["StatefulPartitionedCall/model_1/bidirectional_1/backward_lstm_1/PartitionedCall/while/body/_242/while/split:1"], "attr": {"T": {"type": "DT_FLOAT"}}}, {"name": "StatefulPartitionedCall/model_1/bidirectional_1/backward_lstm_1/PartitionedCall/while/body/_242/while/Tanh", "op": "Tanh", "input": ["StatefulPartitionedCall/model_1/bidirectional_1/backward_lstm_1/PartitionedCall/while/body/_242/while/split:2"], "attr": {"T": {"type": "DT_FLOAT"}}}, {"name": "StatefulPartitionedCall/model_1/bidirectional_1/backward_lstm_1/PartitionedCall/while/body/_242/while/Sigmoid_2", "op": "Sigmoid", "input": ["StatefulPartitionedCall/model_1/bidirectional_1/backward_lstm_1/PartitionedCall/while/body/_242/while/split:3"], "attr": {"T": {"type": "DT_FLOAT"}}}, {"name": "StatefulPartitionedCall/model_1/bidirectional_1/forward_lstm_1/PartitionedCall/while/body/_182/while/mul", "op": "Mul", "input": ["StatefulPartitionedCall/model_1/bidirectional_1/forward_lstm_1/PartitionedCall/while/body/_182/while/Sigmoid_1", "StatefulPartitionedCall/model_1/bidirectional_1/forward_lstm_1/PartitionedCall/while/Func/StatefulPartitionedCall/model_1/bidirectional_1/forward_lstm_1/PartitionedCall/input/_41_switch/_211:1"], "attr": {"T": {"type": "DT_FLOAT"}}}, {"name": "StatefulPartitionedCall/model_1/bidirectional_1/forward_lstm_1/PartitionedCall/while/body/_182/while/mul_1", "op": "Mul", "input": ["StatefulPartitionedCall/model_1/bidirectional_1/forward_lstm_1/PartitionedCall/while/body/_182/while/Sigmoid", "StatefulPartitionedCall/model_1/bidirectional_1/forward_lstm_1/PartitionedCall/while/body/_182/while/Tanh"], "attr": {"T": {"type": "DT_FLOAT"}}}, {"name": "StatefulPartitionedCall/model_1/bidirectional_1/backward_lstm_1/PartitionedCall/while/body/_242/while/mul", "op": "Mul", "input": ["StatefulPartitionedCall/model_1/bidirectional_1/backward_lstm_1/PartitionedCall/while/body/_242/while/Sigmoid_1", "StatefulPartitionedCall/model_1/bidirectional_1/backward_lstm_1/PartitionedCall/while/Func/StatefulPartitionedCall/model_1/bidirectional_1/backward_lstm_1/PartitionedCall/input/_52_switch/_271:1"], "attr": {"T": {"type": "DT_FLOAT"}}}, {"name": "StatefulPartitionedCall/model_1/bidirectional_1/backward_lstm_1/PartitionedCall/while/body/_242/while/mul_1", "op": "Mul", "input": ["StatefulPartitionedCall/model_1/bidirectional_1/backward_lstm_1/PartitionedCall/while/body/_242/while/Sigmoid", "StatefulPartitionedCall/model_1/bidirectional_1/backward_lstm_1/PartitionedCall/while/body/_242/while/Tanh"], "attr": {"T": {"type": "DT_FLOAT"}}}, {"name": "StatefulPartitionedCall/model_1/bidirectional_1/forward_lstm_1/PartitionedCall/while/body/_182/while/add_1", "op": "AddV2", "input": ["StatefulPartitionedCall/model_1/bidirectional_1/forward_lstm_1/PartitionedCall/while/body/_182/while/mul", "StatefulPartitionedCall/model_1/bidirectional_1/forward_lstm_1/PartitionedCall/while/body/_182/while/mul_1"], "attr": {"T": {"type": "DT_FLOAT"}}}, {"name": "StatefulPartitionedCall/model_1/bidirectional_1/backward_lstm_1/PartitionedCall/while/body/_242/while/add_1", "op": "AddV2", "input": ["StatefulPartitionedCall/model_1/bidirectional_1/backward_lstm_1/PartitionedCall/while/body/_242/while/mul", "StatefulPartitionedCall/model_1/bidirectional_1/backward_lstm_1/PartitionedCall/while/body/_242/while/mul_1"], "attr": {"T": {"type": "DT_FLOAT"}}}, {"name": "StatefulPartitionedCall/model_1/bidirectional_1/forward_lstm_1/PartitionedCall/while/body/_182/while/Tanh_1", "op": "Tanh", "input": ["StatefulPartitionedCall/model_1/bidirectional_1/forward_lstm_1/PartitionedCall/while/body/_182/while/add_1"], "attr": {"T": {"type": "DT_FLOAT"}}}, {"name": "StatefulPartitionedCall/model_1/bidirectional_1/forward_lstm_1/PartitionedCall/while/next_iteration/_235", "op": "NextIteration", "input": ["StatefulPartitionedCall/model_1/bidirectional_1/forward_lstm_1/PartitionedCall/while/body/_182/while/add_1", "^StatefulPartitionedCall/model_1/bidirectional_1/forward_lstm_1/PartitionedCall/while/loop_body_control/_217"], "attr": {"T": {"type": "DT_FLOAT"}}}, {"name": "StatefulPartitionedCall/model_1/bidirectional_1/backward_lstm_1/PartitionedCall/while/body/_242/while/Tanh_1", "op": "Tanh", "input": ["StatefulPartitionedCall/model_1/bidirectional_1/backward_lstm_1/PartitionedCall/while/body/_242/while/add_1"], "attr": {"T": {"type": "DT_FLOAT"}}}, {"name": "StatefulPartitionedCall/model_1/bidirectional_1/backward_lstm_1/PartitionedCall/while/next_iteration/_295", "op": "NextIteration", "input": ["StatefulPartitionedCall/model_1/bidirectional_1/backward_lstm_1/PartitionedCall/while/body/_242/while/add_1", "^StatefulPartitionedCall/model_1/bidirectional_1/backward_lstm_1/PartitionedCall/while/loop_body_control/_277"], "attr": {"T": {"type": "DT_FLOAT"}}}, {"name": "StatefulPartitionedCall/model_1/bidirectional_1/forward_lstm_1/PartitionedCall/while/body/_182/while/mul_2", "op": "Mul", "input": ["StatefulPartitionedCall/model_1/bidirectional_1/forward_lstm_1/PartitionedCall/while/body/_182/while/Sigmoid_2", "StatefulPartitionedCall/model_1/bidirectional_1/forward_lstm_1/PartitionedCall/while/body/_182/while/Tanh_1"], "attr": {"T": {"type": "DT_FLOAT"}}}, {"name": "StatefulPartitionedCall/model_1/bidirectional_1/backward_lstm_1/PartitionedCall/while/body/_242/while/mul_2", "op": "Mul", "input": ["StatefulPartitionedCall/model_1/bidirectional_1/backward_lstm_1/PartitionedCall/while/body/_242/while/Sigmoid_2", "StatefulPartitionedCall/model_1/bidirectional_1/backward_lstm_1/PartitionedCall/while/body/_242/while/Tanh_1"], "attr": {"T": {"type": "DT_FLOAT"}}}, {"name": "StatefulPartitionedCall/model_1/bidirectional_1/forward_lstm_1/PartitionedCall/while/next_iteration/_234", "op": "NextIteration", "input": ["StatefulPartitionedCall/model_1/bidirectional_1/forward_lstm_1/PartitionedCall/while/body/_182/while/mul_2", "^StatefulPartitionedCall/model_1/bidirectional_1/forward_lstm_1/PartitionedCall/while/loop_body_control/_217"], "attr": {"T": {"type": "DT_FLOAT"}}}, {"name": "StatefulPartitionedCall/model_1/bidirectional_1/forward_lstm_1/PartitionedCall/while/body/_182/while/TensorArrayV2Write/TensorListSetItem", "op": "TensorListSetItem", "input": ["StatefulPartitionedCall/model_1/bidirectional_1/forward_lstm_1/PartitionedCall/while/StatefulPartitionedCall/model_1/bidirectional_1/forward_lstm_1/PartitionedCall/TensorArrayV2_1_switch/_209:1", "StatefulPartitionedCall/model_1/bidirectional_1/forward_lstm_1/PartitionedCall/while/body/_182/while/TensorArrayV2Write/TensorListSetItem/index", "StatefulPartitionedCall/model_1/bidirectional_1/forward_lstm_1/PartitionedCall/while/body/_182/while/mul_2"], "attr": {"resize_if_index_out_of_bounds": {"b": false}, "element_dtype": {"type": "DT_FLOAT"}}, "experimentalType": {"typeId": "TFT_PRODUCT", "args": [{"typeId": "TFT_ARRAY", "args": [{"typeId": "TFT_TENSOR", "args": [{"typeId": "TFT_FLOAT"}]}]}]}}, {"name": "StatefulPartitionedCall/model_1/bidirectional_1/backward_lstm_1/PartitionedCall/while/next_iteration/_294", "op": "NextIteration", "input": ["StatefulPartitionedCall/model_1/bidirectional_1/backward_lstm_1/PartitionedCall/while/body/_242/while/mul_2", "^StatefulPartitionedCall/model_1/bidirectional_1/backward_lstm_1/PartitionedCall/while/loop_body_control/_277"], "attr": {"T": {"type": "DT_FLOAT"}}}, {"name": "StatefulPartitionedCall/model_1/bidirectional_1/backward_lstm_1/PartitionedCall/while/body/_242/while/TensorArrayV2Write/TensorListSetItem", "op": "TensorListSetItem", "input": ["StatefulPartitionedCall/model_1/bidirectional_1/backward_lstm_1/PartitionedCall/while/StatefulPartitionedCall/model_1/bidirectional_1/backward_lstm_1/PartitionedCall/TensorArrayV2_1_switch/_269:1", "StatefulPartitionedCall/model_1/bidirectional_1/backward_lstm_1/PartitionedCall/while/body/_242/while/TensorArrayV2Write/TensorListSetItem/index", "StatefulPartitionedCall/model_1/bidirectional_1/backward_lstm_1/PartitionedCall/while/body/_242/while/mul_2"], "attr": {"element_dtype": {"type": "DT_FLOAT"}, "resize_if_index_out_of_bounds": {"b": false}}, "experimentalType": {"typeId": "TFT_PRODUCT", "args": [{"typeId": "TFT_ARRAY", "args": [{"typeId": "TFT_TENSOR", "args": [{"typeId": "TFT_FLOAT"}]}]}]}}, {"name": "StatefulPartitionedCall/model_1/bidirectional_1/forward_lstm_1/PartitionedCall/while/next_iteration/_233", "op": "NextIteration", "input": ["StatefulPartitionedCall/model_1/bidirectional_1/forward_lstm_1/PartitionedCall/while/body/_182/while/TensorArrayV2Write/TensorListSetItem", "^StatefulPartitionedCall/model_1/bidirectional_1/forward_lstm_1/PartitionedCall/while/loop_body_control/_217"], "attr": {"T": {"type": "DT_VARIANT"}}}, {"name": "StatefulPartitionedCall/model_1/bidirectional_1/backward_lstm_1/PartitionedCall/while/next_iteration/_293", "op": "NextIteration", "input": ["StatefulPartitionedCall/model_1/bidirectional_1/backward_lstm_1/PartitionedCall/while/body/_242/while/TensorArrayV2Write/TensorListSetItem", "^StatefulPartitionedCall/model_1/bidirectional_1/backward_lstm_1/PartitionedCall/while/loop_body_control/_277"], "attr": {"T": {"type": "DT_VARIANT"}}}], "library": {}, "versions": {"producer": 1575}}, "weightsManifest": [{"paths": ["group1-shard1of1.bin"], "weights": [{"name": "StatefulPartitionedCall/model_1/bidirectional_1/forward_lstm_1/PartitionedCall/TensorArrayV2_1/element_shape", "shape": [2], "dtype": "int32"}, {"name": "StatefulPartitionedCall/model_1/bidirectional_1/forward_lstm_1/PartitionedCall/TensorArrayV2_1/num_elements", "shape": [], "dtype": "int32"}, {"name": "StatefulPartitionedCall/model_1/bidirectional_1/forward_lstm_1/zeros_1/packed/1", "shape": [], "dtype": "int32"}, {"name": "StatefulPartitionedCall/model_1/bidirectional_1/forward_lstm_1/zeros_1/Const", "shape": [], "dtype": "float32"}, {"name": "StatefulPartitionedCall/model_1/bidirectional_1/forward_lstm_1/PartitionedCall/TensorArrayUnstack/TensorListFromTensor/element_shape", "shape": [2], "dtype": "int32"}, {"name": "StatefulPartitionedCall/model_1/bidirectional_1/forward_lstm_1/Read/ReadVariableOp", "shape": [128, 256], "dtype": "float32"}, {"name": "StatefulPartitionedCall/model_1/bidirectional_1/forward_lstm_1/strided_slice/stack", "shape": [1], "dtype": "int32"}, {"name": "StatefulPartitionedCall/model_1/bidirectional_1/forward_lstm_1/strided_slice/stack_1", "shape": [1], "dtype": "int32"}, {"name": "StatefulPartitionedCall/model_1/bidirectional_1/forward_lstm_1/strided_slice/stack_2", "shape": [1], "dtype": "int32"}, {"name": "StatefulPartitionedCall/model_1/bidirectional_1/forward_lstm_1/zeros/packed/1", "shape": [], "dtype": "int32"}, {"name": "StatefulPartitionedCall/model_1/bidirectional_1/forward_lstm_1/zeros/Const", "shape": [], "dtype": "float32"}, {"name": "StatefulPartitionedCall/model_1/bidirectional_1/forward_lstm_1/Read_1/ReadVariableOp", "shape": [64, 256], "dtype": "float32"}, {"name": "StatefulPartitionedCall/model_1/bidirectional_1/forward_lstm_1/Read_2/ReadVariableOp", "shape": [256], "dtype": "float32"}, {"name": "StatefulPartitionedCall/model_1/bidirectional_1/forward_lstm_1/PartitionedCall/time", "shape": [], "dtype": "int32"}, {"name": "StatefulPartitionedCall/model_1/bidirectional_1/forward_lstm_1/PartitionedCall/transpose/perm", "shape": [3], "dtype": "int32"}, {"name": "StatefulPartitionedCall/model_1/bidirectional_1/forward_lstm_1/PartitionedCall/strided_slice/stack", "shape": [1], "dtype": "int32"}, {"name": "StatefulPartitionedCall/model_1/bidirectional_1/forward_lstm_1/PartitionedCall/strided_slice/stack_1", "shape": [1], "dtype": "int32"}, {"name": "StatefulPartitionedCall/model_1/bidirectional_1/forward_lstm_1/PartitionedCall/strided_slice/stack_2", "shape": [1], "dtype": "int32"}, {"name": "StatefulPartitionedCall/model_1/bidirectional_1/forward_lstm_1/PartitionedCall/while/loop_counter", "shape": [], "dtype": "int32"}, {"name": "StatefulPartitionedCall/model_1/bidirectional_1/forward_lstm_1/PartitionedCall/TensorArrayV2Stack/TensorListStack/element_shape", "shape": [2], "dtype": "int32"}, {"name": "StatefulPartitionedCall/model_1/bidirectional_1/forward_lstm_1/PartitionedCall/strided_slice_2/stack", "shape": [1], "dtype": "int32"}, {"name": "StatefulPartitionedCall/model_1/bidirectional_1/forward_lstm_1/PartitionedCall/strided_slice_2/stack_1", "shape": [1], "dtype": "int32"}, {"name": "StatefulPartitionedCall/model_1/bidirectional_1/forward_lstm_1/PartitionedCall/strided_slice_2/stack_2", "shape": [1], "dtype": "int32"}, {"name": "StatefulPartitionedCall/model_1/bidirectional_1/backward_lstm_1/PartitionedCall/TensorArrayV2_1/element_shape", "shape": [2], "dtype": "int32"}, {"name": "StatefulPartitionedCall/model_1/bidirectional_1/backward_lstm_1/PartitionedCall/TensorArrayV2_1/num_elements", "shape": [], "dtype": "int32"}, {"name": "StatefulPartitionedCall/model_1/bidirectional_1/backward_lstm_1/zeros_1/packed/1", "shape": [], "dtype": "int32"}, {"name": "StatefulPartitionedCall/model_1/bidirectional_1/backward_lstm_1/zeros_1/Const", "shape": [], "dtype": "float32"}, {"name": "StatefulPartitionedCall/model_1/bidirectional_1/backward_lstm_1/PartitionedCall/ReverseV2/axis", "shape": [1], "dtype": "int32"}, {"name": "StatefulPartitionedCall/model_1/bidirectional_1/backward_lstm_1/PartitionedCall/TensorArrayUnstack/TensorListFromTensor/element_shape", "shape": [2], "dtype": "int32"}, {"name": "StatefulPartitionedCall/model_1/bidirectional_1/backward_lstm_1/Read/ReadVariableOp", "shape": [128, 256], "dtype": "float32"}, {"name": "StatefulPartitionedCall/model_1/bidirectional_1/backward_lstm_1/strided_slice/stack", "shape": [1], "dtype": "int32"}, {"name": "StatefulPartitionedCall/model_1/bidirectional_1/backward_lstm_1/strided_slice/stack_1", "shape": [1], "dtype": "int32"}, {"name": "StatefulPartitionedCall/model_1/bidirectional_1/backward_lstm_1/strided_slice/stack_2", "shape": [1], "dtype": "int32"}, {"name": "StatefulPartitionedCall/model_1/bidirectional_1/backward_lstm_1/zeros/packed/1", "shape": [], "dtype": "int32"}, {"name": "StatefulPartitionedCall/model_1/bidirectional_1/backward_lstm_1/zeros/Const", "shape": [], "dtype": "float32"}, {"name": "StatefulPartitionedCall/model_1/bidirectional_1/backward_lstm_1/Read_1/ReadVariableOp", "shape": [64, 256], "dtype": "float32"}, {"name": "StatefulPartitionedCall/model_1/bidirectional_1/backward_lstm_1/Read_2/ReadVariableOp", "shape": [256], "dtype": "float32"}, {"name": "StatefulPartitionedCall/model_1/bidirectional_1/backward_lstm_1/PartitionedCall/time", "shape": [], "dtype": "int32"}, {"name": "StatefulPartitionedCall/model_1/bidirectional/forward_lstm/PartitionedCall/TensorArrayV2_1/element_shape", "shape": [2], "dtype": "int32"}, {"name": "StatefulPartitionedCall/model_1/bidirectional/forward_lstm/zeros_1/packed/1", "shape": [], "dtype": "int32"}, {"name": "StatefulPartitionedCall/model_1/bidirectional/forward_lstm/zeros_1/Const", "shape": [], "dtype": "float32"}, {"name": "StatefulPartitionedCall/model_1/bidirectional/forward_lstm/PartitionedCall/TensorArrayUnstack/TensorListFromTensor/element_shape", "shape": [2], "dtype": "int32"}, {"name": "StatefulPartitionedCall/model_1/bidirectional/forward_lstm/Read/ReadVariableOp", "shape": [256, 256], "dtype": "float32"}, {"name": "StatefulPartitionedCall/model_1/bidirectional/forward_lstm/strided_slice/stack", "shape": [1], "dtype": "int32"}, {"name": "StatefulPartitionedCall/model_1/bidirectional/forward_lstm/strided_slice/stack_1", "shape": [1], "dtype": "int32"}, {"name": "StatefulPartitionedCall/model_1/bidirectional/forward_lstm/strided_slice/stack_2", "shape": [1], "dtype": "int32"}, {"name": "StatefulPartitionedCall/model_1/bidirectional/forward_lstm/zeros/packed/1", "shape": [], "dtype": "int32"}, {"name": "StatefulPartitionedCall/model_1/bidirectional/forward_lstm/zeros/Const", "shape": [], "dtype": "float32"}, {"name": "StatefulPartitionedCall/model_1/bidirectional/forward_lstm/Read_1/ReadVariableOp", "shape": [64, 256], "dtype": "float32"}, {"name": "StatefulPartitionedCall/model_1/bidirectional/forward_lstm/Read_2/ReadVariableOp", "shape": [256], "dtype": "float32"}, {"name": "StatefulPartitionedCall/model_1/bidirectional/forward_lstm/PartitionedCall/time", "shape": [], "dtype": "int32"}, {"name": "StatefulPartitionedCall/model_1/bidirectional/forward_lstm/PartitionedCall/transpose/perm", "shape": [3], "dtype": "int32"}, {"name": "StatefulPartitionedCall/model_1/bidirectional/forward_lstm/PartitionedCall/strided_slice/stack", "shape": [1], "dtype": "int32"}, {"name": "StatefulPartitionedCall/model_1/bidirectional/forward_lstm/PartitionedCall/strided_slice/stack_1", "shape": [1], "dtype": "int32"}, {"name": "StatefulPartitionedCall/model_1/bidirectional/forward_lstm/PartitionedCall/strided_slice/stack_2", "shape": [1], "dtype": "int32"}, {"name": "StatefulPartitionedCall/model_1/bidirectional/forward_lstm/PartitionedCall/while/loop_counter", "shape": [], "dtype": "int32"}, {"name": "StatefulPartitionedCall/model_1/bidirectional/forward_lstm/PartitionedCall/TensorArrayV2Stack/TensorListStack/element_shape", "shape": [2], "dtype": "int32"}, {"name": "StatefulPartitionedCall/model_1/bidirectional/forward_lstm/PartitionedCall/transpose_1/perm", "shape": [3], "dtype": "int32"}, {"name": "StatefulPartitionedCall/model_1/bidirectional/backward_lstm/PartitionedCall/TensorArrayV2_1/element_shape", "shape": [2], "dtype": "int32"}, {"name": "StatefulPartitionedCall/model_1/bidirectional/backward_lstm/zeros_1/packed/1", "shape": [], "dtype": "int32"}, {"name": "StatefulPartitionedCall/model_1/bidirectional/backward_lstm/zeros_1/Const", "shape": [], "dtype": "float32"}, {"name": "StatefulPartitionedCall/model_1/bidirectional/backward_lstm/PartitionedCall/ReverseV2/axis", "shape": [1], "dtype": "int32"}, {"name": "StatefulPartitionedCall/model_1/bidirectional/backward_lstm/PartitionedCall/TensorArrayUnstack/TensorListFromTensor/element_shape", "shape": [2], "dtype": "int32"}, {"name": "StatefulPartitionedCall/model_1/bidirectional/backward_lstm/Read/ReadVariableOp", "shape": [256, 256], "dtype": "float32"}, {"name": "StatefulPartitionedCall/model_1/bidirectional/backward_lstm/strided_slice/stack", "shape": [1], "dtype": "int32"}, {"name": "StatefulPartitionedCall/model_1/bidirectional/backward_lstm/strided_slice/stack_1", "shape": [1], "dtype": "int32"}, {"name": "StatefulPartitionedCall/model_1/bidirectional/backward_lstm/strided_slice/stack_2", "shape": [1], "dtype": "int32"}, {"name": "StatefulPartitionedCall/model_1/bidirectional/backward_lstm/zeros/packed/1", "shape": [], "dtype": "int32"}, {"name": "StatefulPartitionedCall/model_1/bidirectional/backward_lstm/zeros/Const", "shape": [], "dtype": "float32"}, {"name": "StatefulPartitionedCall/model_1/bidirectional/backward_lstm/Read_1/ReadVariableOp", "shape": [64, 256], "dtype": "float32"}, {"name": "StatefulPartitionedCall/model_1/bidirectional/backward_lstm/Read_2/ReadVariableOp", "shape": [256], "dtype": "float32"}, {"name": "StatefulPartitionedCall/model_1/bidirectional/backward_lstm/PartitionedCall/time", "shape": [], "dtype": "int32"}, {"name": "StatefulPartitionedCall/model_1/bidirectional/backward_lstm/PartitionedCall/transpose/perm", "shape": [3], "dtype": "int32"}, {"name": "StatefulPartitionedCall/model_1/bidirectional/backward_lstm/PartitionedCall/strided_slice/stack", "shape": [1], "dtype": "int32"}, {"name": "StatefulPartitionedCall/model_1/bidirectional/backward_lstm/PartitionedCall/strided_slice/stack_1", "shape": [1], "dtype": "int32"}, {"name": "StatefulPartitionedCall/model_1/bidirectional/backward_lstm/PartitionedCall/strided_slice/stack_2", "shape": [1], "dtype": "int32"}, {"name": "StatefulPartitionedCall/model_1/bidirectional/backward_lstm/PartitionedCall/while/loop_counter", "shape": [], "dtype": "int32"}, {"name": "StatefulPartitionedCall/model_1/bidirectional/backward_lstm/PartitionedCall/TensorArrayV2Stack/TensorListStack/element_shape", "shape": [2], "dtype": "int32"}, {"name": "StatefulPartitionedCall/model_1/bidirectional/backward_lstm/PartitionedCall/transpose_1/perm", "shape": [3], "dtype": "int32"}, {"name": "StatefulPartitionedCall/model_1/bidirectional/ReverseV2/axis", "shape": [1], "dtype": "int32"}, {"name": "StatefulPartitionedCall/model_1/bidirectional/concat/axis", "shape": [], "dtype": "int32"}, {"name": "StatefulPartitionedCall/model_1/bidirectional_1/backward_lstm_1/PartitionedCall/transpose/perm", "shape": [3], "dtype": "int32"}, {"name": "StatefulPartitionedCall/model_1/bidirectional_1/backward_lstm_1/PartitionedCall/strided_slice/stack", "shape": [1], "dtype": "int32"}, {"name": "StatefulPartitionedCall/model_1/bidirectional_1/backward_lstm_1/PartitionedCall/strided_slice/stack_1", "shape": [1], "dtype": "int32"}, {"name": "StatefulPartitionedCall/model_1/bidirectional_1/backward_lstm_1/PartitionedCall/strided_slice/stack_2", "shape": [1], "dtype": "int32"}, {"name": "StatefulPartitionedCall/model_1/bidirectional_1/backward_lstm_1/PartitionedCall/while/loop_counter", "shape": [], "dtype": "int32"}, {"name": "StatefulPartitionedCall/model_1/bidirectional_1/backward_lstm_1/PartitionedCall/TensorArrayV2Stack/TensorListStack/element_shape", "shape": [2], "dtype": "int32"}, {"name": "StatefulPartitionedCall/model_1/bidirectional_1/backward_lstm_1/PartitionedCall/strided_slice_2/stack", "shape": [1], "dtype": "int32"}, {"name": "StatefulPartitionedCall/model_1/bidirectional_1/backward_lstm_1/PartitionedCall/strided_slice_2/stack_1", "shape": [1], "dtype": "int32"}, {"name": "StatefulPartitionedCall/model_1/bidirectional_1/backward_lstm_1/PartitionedCall/strided_slice_2/stack_2", "shape": [1], "dtype": "int32"}, {"name": "StatefulPartitionedCall/model_1/bidirectional_1/concat/axis", "shape": [], "dtype": "int32"}, {"name": "StatefulPartitionedCall/model_1/dense/MatMul/ReadVariableOp", "shape": [128, 28], "dtype": "float32"}, {"name": "StatefulPartitionedCall/model_1/dense/BiasAdd/ReadVariableOp", "shape": [28], "dtype": "float32"}, {"name": "StatefulPartitionedCall/model_1/bidirectional/forward_lstm/PartitionedCall/while/body/_62/while/split/split_dim", "shape": [], "dtype": "int32"}, {"name": "StatefulPartitionedCall/model_1/bidirectional/forward_lstm/PartitionedCall/while/body/_62/while/TensorArrayV2Read/TensorListGetItem/element_shape", "shape": [2], "dtype": "int32"}, {"name": "StatefulPartitionedCall/model_1/bidirectional/forward_lstm/PartitionedCall/while/body/_62/while/add_2/y", "shape": [], "dtype": "int32"}, {"name": "StatefulPartitionedCall/model_1/bidirectional/forward_lstm/PartitionedCall/while/body/_62/while/add_3/y", "shape": [], "dtype": "int32"}, {"name": "StatefulPartitionedCall/model_1/bidirectional/backward_lstm/PartitionedCall/while/body/_122/while/split/split_dim", "shape": [], "dtype": "int32"}, {"name": "StatefulPartitionedCall/model_1/bidirectional/backward_lstm/PartitionedCall/while/body/_122/while/TensorArrayV2Read/TensorListGetItem/element_shape", "shape": [2], "dtype": "int32"}, {"name": "StatefulPartitionedCall/model_1/bidirectional/backward_lstm/PartitionedCall/while/body/_122/while/add_2/y", "shape": [], "dtype": "int32"}, {"name": "StatefulPartitionedCall/model_1/bidirectional/backward_lstm/PartitionedCall/while/body/_122/while/add_3/y", "shape": [], "dtype": "int32"}, {"name": "StatefulPartitionedCall/model_1/bidirectional_1/forward_lstm_1/PartitionedCall/while/body/_182/while/TensorArrayV2Write/TensorListSetItem/index", "shape": [], "dtype": "int32"}, {"name": "StatefulPartitionedCall/model_1/bidirectional_1/forward_lstm_1/PartitionedCall/while/body/_182/while/split/split_dim", "shape": [], "dtype": "int32"}, {"name": "StatefulPartitionedCall/model_1/bidirectional_1/forward_lstm_1/PartitionedCall/while/body/_182/while/TensorArrayV2Read/TensorListGetItem/element_shape", "shape": [2], "dtype": "int32"}, {"name": "StatefulPartitionedCall/model_1/bidirectional_1/forward_lstm_1/PartitionedCall/while/body/_182/while/add_2/y", "shape": [], "dtype": "int32"}, {"name": "StatefulPartitionedCall/model_1/bidirectional_1/forward_lstm_1/PartitionedCall/while/body/_182/while/add_3/y", "shape": [], "dtype": "int32"}, {"name": "StatefulPartitionedCall/model_1/bidirectional_1/backward_lstm_1/PartitionedCall/while/body/_242/while/TensorArrayV2Write/TensorListSetItem/index", "shape": [], "dtype": "int32"}, {"name": "StatefulPartitionedCall/model_1/bidirectional_1/backward_lstm_1/PartitionedCall/while/body/_242/while/split/split_dim", "shape": [], "dtype": "int32"}, {"name": "StatefulPartitionedCall/model_1/bidirectional_1/backward_lstm_1/PartitionedCall/while/body/_242/while/TensorArrayV2Read/TensorListGetItem/element_shape", "shape": [2], "dtype": "int32"}, {"name": "StatefulPartitionedCall/model_1/bidirectional_1/backward_lstm_1/PartitionedCall/while/body/_242/while/add_2/y", "shape": [], "dtype": "int32"}, {"name": "StatefulPartitionedCall/model_1/bidirectional_1/backward_lstm_1/PartitionedCall/while/body/_242/while/add_3/y", "shape": [], "dtype": "int32"}]}]}